omni/sdu/ai/examples/LSTM/model/modelv3.pth (torch, 6755 bytes, 6 tensors)

lstm.weight_ih_l0 f4 [64, 2]
000000 f0 f7 ed 3d c6 8b 5e be 56 de 79 3e f4 34 5f 3e
       0.11619556 -0.21733007 0.2440122 0.21797544
000010 80 c2 57 3c 10 0a a4 3d fa 19 4f be 00 00 48 b9
       0.013168931 0.08009732 -0.20224753 -0.00019073486
000020 e0 68 c9 bd 24 57 79 3e 46 9b 41 be 20 f2 62 3e
       -0.098344564 0.24349648 -0.18906888 0.22162676
000030 00 08 a0 3a 3a e8 6f be 60 e7 7c bd f0 cd 05 3d
       0.0012209415 -0.23428431 -0.061744094 0.0326671
000040 ec 29 d4 3d 40 36 67 bd 8a fd 4a 3e 22 5b 56 3e
       0.103595585 -0.05644822 0.1982328 0.20933202
000050 54 2d 79 3e 80 63 af 3b 94 75 75 be 90 54 e3 bc
       0.24333698 0.0053524375 -0.23970634 -0.027750283
000060 20 b8 8e bd 4e bc 23 be 54 eb 2a 3e e4 3b b6 3d
       -0.06968713 -0.15989801 0.16691333 0.08898142
000070 c6 62 15 3e 96 84 27 be ee 79 40 3e e2 dd 4a 3e
       0.1458846 -0.16359171 0.18796512 0.19811204
000080 d4 4d ad bd 5e 28 1b be 7c 06 19 3e 7e 8d 69 be
       -0.0846211 -0.15152118 0.1494388 -0.22807881
000090 00 01 bd bc 1a 7a 6f 3e ba 44 1e 3e 84 39 a4 3d
       -0.023071766 0.23386422 0.15455905 0.08018783
0000a0 f0 ad 8a 3d a8 e3 90 bd 38 cf bd 3d 90 3f 3b 3d
       0.06771457 -0.07074672 0.092680395 0.045714915
0000b0 78 ce eb bd 00 20 f2 3b 40 ba b0 bb d8 6d 46 3d
       -0.1151399 0.0073890686 -0.0053932965 0.0484446
0000c0 08 a6 cd 3d 5a e7 71 3e 74 bf f0 bd c0 19 fc bc
       0.100414336 0.2362341 -0.11755267 -0.030773997
0000d0 20 65 41 bc f4 75 ed bd 38 39 0d be c8 35 5f bd
       -0.011803895 -0.115947634 -0.13791358 -0.05449465
0000e0 18 5b b6 3d 20 67 10 3e ae 09 28 3e fc a7 d6 bd
       0.089040935 0.14101839 0.16409943 -0.10481259
0000f0 62 bf 71 3e 1a a1 4b be 48 7a 09 bd 48 27 90 3d
       0.23608163 -0.19885674 -0.033563882 0.07038742
000100 a6 06 03 be 70 be fc bc c0 9b 37 3c d8 ac 48 3e
       -0.12795505 -0.030852526 0.011206567 0.19597185
000110 bc f0 ab bd 30 81 31 3e 90 61 82 3c 30 2f b1 bd
       -0.08395526 0.17334437 0.015915662 -0.086515784
000120 ec a3 ca bd e8 18 71 be b0 74 55 3d 84 10 d7 3d
       -0.09894547 -0.23544657 0.052113235 0.10501197
000130 28 51 07 3d a4 ce 4e be b0 a7 e7 3d 90 95 34 bd
       0.03303638 -0.20196015 0.11311281 -0.044087946
000140 00 99 60 bb 00 e0 15 3e a4 a4 99 3d 26 eb 44 be
       -0.0034270883 0.1463623 0.07502106 -0.19230327
000150 e4 eb ad 3d ce 25 1d 3e 98 ab cf bd dc 8f f5 bd
       0.08492258 0.15346453 -0.10140151 -0.119903296
000160 80 a5 be bd 7c ed 28 be a6 67 77 3e 66 57 49 be
       -0.0930891 -0.16496843 0.24160632 -0.19662246
000170 78 c0 91 3d e8 8c b4 3d 90 14 4f be 68 a8 c7 bd
       0.071167886 0.08815938 -0.20222688 -0.09748918
000180 00 0f f6 bc f0 fb 71 3d c2 7c 18 3e 5e 40 53 be
       -0.03003645 0.059078157 0.14891341 -0.20630023
000190 5e 9c 7f be 9c a4 8b bd ce b2 1a be 40 a0 c9 3d
       -0.24961993 -0.06818506 -0.15107271 0.098450184
0001a0 c4 3a 02 be f8 da ae bd 58 d0 16 3e c8 55 c0 3d
       -0.1271773 -0.08537859 0.14727914 0.093913615
0001b0 a6 0c 14 be 60 95 ac bd 78 3d 55 3d 3a 9c 42 be
       -0.1445795 -0.084269285 0.052060574 -0.19004908
0001c0 3a d6 44 be 00 82 05 bd e4 25 39 be ce 44 78 be
       -0.19222346 -0.03259468 -0.1808086 -0.24244997
0001d0 50 74 9d 3d 90 bf 04 3d a6 0a 7f 3e fe 0d 23 be
       0.076882005 0.03240925 0.24906406 -0.15923306
0001e0 3e 3f 73 be d2 ca 43 be 80 e8 68 3c 8a 52 47 3e
       -0.23754594 -0.19120339 0.014215589 0.1946508
0001f0 80 e0 54 3e f4 d3 cf 3d 18 9b 46 bd ce 2d 04 3e
       0.20788765 0.10147849 -0.048487753 0.12908098

lstm.weight_hh_l0 f4 [64, 16]
000000 48 ca 2b 3e 80 68 e5 3d 50 3f 67 bd 20 8a a5 bc
       0.16776383 0.112015724 -0.056456864 -0.020207465
000010 d0 1c 65 3d 04 46 3c be 98 92 5b be 9e db 55 be
       0.05593568 -0.18386084 -0.2144264 -0.20884559
000020 c8 5a de bd 1a ff 4d be 40 3f 2b 3c c0 54 70 bc
       -0.10857159 -0.20116845 0.010452092 -0.0146686435
000030 28 bc 6f 3d 0c d0 06 be 08 e4 15 3e 96 11 7f 3e
       0.05852905 -0.13165301 0.14637768 0.24909052
000040 62 b1 5a 3e 80 d6 43 3d d8 42 2e be b8 13 c6 bd
       0.21356729 0.047811985 -0.17017686 -0.0967173
000050 90 7b 3c 3d 96 18 0b 3e 00 76 6e ba be c5 35 3e
       0.046016276 0.13583598 -0.0009096563 0.17751214
000060 fc 7c f8 3d c0 a4 12 3d b8 b7 a7 3d 86 96 6f be
       0.12133214 0.03580165 0.081893384 -0.23397264
000070 f6 c4 30 be 54 f6 9c bd 44 66 d2 3d 14 f2 c3 3d
       -0.17262635 -0.07664171 0.10273412 0.09567657
000080 40 3c 98 bd b8 50 d8 3d 02 b4 12 3e 84 62 9b 3d
       -0.07433367 0.10562271 0.1432648 0.0758715
000090 44 69 2c be 30 64 02 be 92 7b 38 be 9e 62 13 3e
       -0.1683703 -0.12733531 -0.18015888 0.14393088
0000a0 f4 8c d7 3d 6a 4d 33 be 00 5b e4 3d 20 a4 1a 3e
       0.105249316 -0.1751 0.111501694 0.15101671
0000b0 60 6b 34 3d 56 68 34 be 9c 58 c4 3d 30 04 da 3c
       0.044047713 -0.17617926 0.095872134 0.026613325
0000c0 00 1f cc ba 10 10 27 3d 60 f5 e5 bd e0 a3 17 3c
       -0.0015573204 0.040786803 -0.11228442 0.009255379
0000d0 40 a4 b0 bc 38 1f 98 3d c8 7f e9 3d 18 62 67 3e
       -0.021562696 0.074278295 0.114013255 0.22596014
0000e0 80 9a 1a bc 0c 47 87 3d 4a 3d 1c be ec e9 61 3e
       -0.00943625 0.06605348 -0.15257755 0.2206189
0000f0 50 f3 71 be d0 73 50 3e b4 b4 89 bd 10 03 3e 3d
       -0.23627973 0.20356679 -0.067239195 0.04638964
000100 b8 ed 22 be 70 61 98 bc 10 8e 7c be f8 76 61 bd
       -0.15910995 -0.01860115 -0.24663568 -0.055045098
000110 10 d7 c9 3d 7c d1 87 bd 20 3b fc bc a6 31 32 3e
       0.09855473 -0.06631753 -0.030789912 0.17401752
000120 c0 8e 8f bc 0e e2 54 be 58 01 b6 3d 52 2c 49 3e
       -0.017524123 -0.20789358 0.08886975 0.19645813
000130 2c 20 cd 3d 20 23 c6 bc ea cb 1f 3e e0 30 54 bc
       0.10015902 -0.02418667 0.15605131 -0.012951106
000140 50 34 bf 3d a4 f1 58 be 4e b4 77 be 94 55 23 be
       0.0933615 -0.21185929 -0.24189875 -0.15950614
000150 7c b0 bf 3d 80 3b 24 bd c0 42 ca bb 1e 7b 52 be
       0.093598336 -0.040095806 -0.006172508 -0.20554778
000160 bc a2 5b be a0 1e da 3d b8 3c 4f 3e 76 47 26 be
       -0.21448797 0.106503725 0.20238006 -0.16238198
000170 28 21 1a bd 20 23 1e bc 80 10 c2 bb 90 8d 22 3e
       -0.037629277 -0.009651929 -0.005922377 0.15874314
000180 30 c7 da 3d 28 be 8a 3d 84 19 46 be 80 5a 32 3c
       0.10682523 0.06774551 -0.19345671 0.010885835
000190 18 58 23 bd e0 14 d7 3c 40 80 d8 bb 88 50 14 3e
       -0.039878935 0.026255071 -0.0066070855 0.14483845
0001a0 ae 09 20 be b6 16 12 be 20 bf 71 bd 5a f4 36 3e
       -0.15628693 -0.14266476 -0.05902016 0.1786665
0001b0 2c 73 e8 bd f8 3f 76 3e 28 cb 8b bd d4 3d fd 3d
       -0.11350092 0.2404784 -0.06825858 0.123653084
0001c0 76 1f 70 be 70 e3 e3 bc 04 25 35 be 12 b5 1b 3e
       -0.23449501 -0.027818412 -0.17689902 0.15205792
0001d0 18 23 24 bd e8 d9 72 bd 08 e4 3c be e8 cf eb bd
       -0.04007253 -0.059289843 -0.18446362 -0.11514264
0001e0 6c ac 0a 3e 3a ca 56 3e 04 fc fb 3d d2 d4 63 3e
       0.13542336 0.20975581 0.123039275 0.22249153
0001f0 86 79 5f 3e 40 28 80 bb e2 35 1a 3e dc 35 fc bd
       0.21823701 -0.003911048 0.15059617 -0.1231496
000200 b6 14 5c 3e 1c 5a 39 3e e8 d0 c6 3d 58 4e 62 be
       0.21492276 0.1810078 0.097078145 -0.22100198
000210 f6 81 05 be d0 e2 5e be 68 8e 69 be 00 d2 1a 3b
       -0.13037857 -0.2176621 -0.2280823 0.0023623705
000220 c8 54 71 3e 80 90 e0 bb 30 90 aa 3d 38 0d 79 3d
       0.23567498 -0.0068531632 0.08328283 0.060803622
000230 40 3b 93 bc f8 54 c7 3d 78 8b fa bd b6 cb 49 3e
       -0.017972589 0.097330034 -0.12233633 0.19706616
000240 e0 9e 03 3e 20 5a 60 3d 6c 0b f9 bd 34 df d9 3d
       0.12853575 0.05477345 -0.12160382 0.10638276
000250 e0 80 35 3c 60 2d e4 3c 70 ca 04 bd 5a ef 1d be
       0.0110780895 0.027853668 -0.032419622 -0.15423337
000260 90 1a f8 3d 2e 2e 29 be ba 0d 09 3e a4 4e 99 bd
       0.121144414 -0.16521522 0.13384143 -0.07485703
000270 96 c6 19 be 00 91 b1 ba 60 d5 e4 3c e8 33 b4 3d
       -0.15017161 -0.0013547242 0.027933776 0.08798963
000280 3e ef 50 3e 66 74 5f be 6a 07 6d be 4a 92 6f be
       0.20403764 -0.21821746 -0.2314736 -0.23395649
000290 a6 6e 7e 3e b0 8e 52 3e 02 c3 38 be ee ac 71 be
       0.24846897 0.20562243 -0.1804314 -0.23601124
0002a0 58 a9 48 3e b2 3d 52 be c0 6b 18 3c 88 bc 48 3e
       0.1959585 -0.20531347 0.009303033 0.19603169
0002b0 ca 04 11 3e 64 6e 83 bd c0 75 1c 3c ac 92 e2 bd
       0.14161983 -0.0641754 0.009549558 -0.11063132
0002c0 a8 f5 3f bd 48 39 0e bd dc a4 62 3e a8 f3 5c bd
       -0.046865135 -0.034722596 0.22133201 -0.053943306
0002d0 70 cd ce bc 78 18 ac bd f0 3a ef bd 80 71 44 3d
       -0.025244445 -0.084031045 -0.11681163 0.047959805
0002e0 be 5b 09 3e 20 5a 6f 3d e6 db 25 3e e8 09 8c bd
       0.13413903 0.05843556 0.16197166 -0.06837827
0002f0 62 9f 74 3e a8 9d b9 bd e4 b5 23 be d4 be 3e be
       0.23888925 -0.09063274 -0.15987355 -0.18627483
000300 50 f6 ff 3d 2e 49 11 be f8 83 59 3e 28 81 f4 bd
       0.12498152 -0.14188072 0.21241748 -0.11938697
000310 2c 9a 31 be c8 63 80 3d bc c6 75 be b8 58 50 3e
       -0.17343968 0.06269032 -0.24001592 0.20346344
000320 46 fd 0f 3e 1a 7b 38 3e 9c 22 7b be 1c 5a c1 bd
       0.1406146 0.1801571 -0.24524921 -0.09441015
000330 60 a8 d6 bd c4 e9 83 bd 30 73 a2 3d 10 26 80 bc
       -0.10481334 -0.06441072 0.079321265 -0.01564315
000340 a0 35 79 3d f8 ac c5 3d b2 85 1e 3e f4 8d 7d 3e
       0.060842156 0.09652132 0.15480688 0.24761182
000350 ae ab 76 be 00 83 55 3d 92 b0 00 3e 04 53 d9 bd
       -0.24088928 0.052126884 0.12567356 -0.10611537
000360 00 fb 55 bd 2c a6 ff 3d 18 70 c4 bd 9c 47 57 be
       -0.052241325 0.12482867 -0.09591693 -0.2102341
000370 3c b3 cc 3d 36 45 75 3e f0 7d d5 bc c0 b0 20 bc
       0.09995124 0.23952183 -0.026061028 -0.0098077655
000380 48 9c 39 be 50 3f 6b bd d4 bf 67 3e 20 4c f6 3c
       -0.18126023 -0.057433426 0.2263177 0.030065596
000390 90 a8 46 bd 40 c0 3e bc 40 4e dd 3c a4 5f 07 be
       -0.048500597 -0.011642516 0.027014852 -0.13220078
0003a0 c0 b2 78 3e e4 f8 3a 3e a4 f2 c4 3d f6 4f 52 3e
       0.24286938 0.18259007 0.096165925 0.20538315
0003b0 34 94 3c be e0 9f 5f be c0 df 1f bd 8a 80 12 be
       -0.1841591 -0.21838331 -0.039031744 -0.14306846
0003c0 50 fa 47 3d 70 a2 81 3c 30 a5 d1 3d f8 99 15 bd
       0.0488227 0.015824527 0.10236585 -0.03652379
0003d0 da 91 62 be b4 79 32 3e a0 ce 26 bd 00 81 84 3b
       -0.2212595 0.17429239 -0.040724397 0.0040436983
0003e0 d4 8d 1c 3e 58 d7 98 3d 4a 42 74 3e 98 d5 57 bd
       0.15288478 0.074629486 0.23853412 -0.052693933
0003f0 44 a3 62 3e 4e aa 7f 3e c8 e4 8f bd 80 e4 47 3c
       0.22132593 0.2496731 -0.070260584 0.012200475

lstm.bias_ih_l0 f4 [64]
000000 e4 75 32 be 32 66 04 be 80 6c 3f bb e0 cd fe bd
       -0.17427784 -0.1292961 -0.0029208958 -0.12441611
000010 80 1f 6d 3d 52 1a 7a 3e 04 1a d7 bd 08 cf 18 bd
       0.05789137 0.24424103 -0.10503009 -0.037306815
000020 86 f9 44 3e 94 d1 86 3d 80 a8 17 bc 9c 18 d9 bd
       0.1923581 0.065829426 -0.009256482 -0.10600397
000030 f0 50 c0 bd 46 e1 68 be 12 df 6b be 80 94 53 be
       -0.093904376 -0.22742185 -0.23034313 -0.20662117
000040 82 ac 44 be 6c e7 bd bd 50 ba 46 be be 6d 72 be
       -0.19206432 -0.09272656 -0.1940701 -0.23674676
000050 f8 7b 77 3d 58 00 37 be 4c 9a e2 3d d0 61 bc 3d
       0.06042096 -0.17871225 0.11064586 0.09198344
000060 70 99 b5 3d 7e 61 75 3e b4 85 3a be 66 98 74 be
       0.088671565 0.23962972 -0.18215066 -0.2388626
000070 80 86 d5 3b 5a 19 3d be 80 5a 2e 3e 54 b8 5d be
       0.006516278 -0.18466702 0.1702671 -0.21652347
000080 e0 0c 1c 3e 5e 2c 74 be 80 c0 17 bc ea 01 6b 3e
       0.15239286 -0.2384505 -0.009262204 0.22949949
000090 80 ec b0 3b c4 8d 36 be 92 a1 5d be a2 33 5c 3e
       0.0053992867 -0.17827517 -0.21643665 0.21504071
0000a0 00 40 07 ba cc 29 0b be 84 a3 19 be 40 31 f1 bd
       -0.0005159378 -0.13590163 -0.15003783 -0.11776972
0000b0 d0 b2 c8 3c a0 39 7f bc 20 f4 93 bc b8 65 d1 bd
       0.024499327 -0.015577704 -0.018060744 -0.102244794
0000c0 3c 23 eb 3d e4 12 99 3d 6e 42 72 be a8 1b 7c 3d
       0.1148133 0.07474306 -0.23658153 0.061549813
0000d0 00 c9 fd ba 00 d1 ac 3a 20 35 7e be 00 0f 74 be
       -0.0019362271 0.0013184845 -0.24824953 -0.23833847
0000e0 54 48 3d 3e 00 bf 22 3b f0 c2 6d 3e e4 57 35 3e
       0.18484622 0.0024833083 0.23218894 0.17709309
0000f0 82 c6 3c be 22 e6 06 3e ba 26 6b be 2e 41 79 be
       -0.184351 0.13173726 -0.22963992 -0.2434127

lstm.bias_hh_l0 f4 [64]
000000 80 bb 6e 3d 92 c9 18 3e c0 dc d2 3c bc fc c2 bd
       0.058284283 0.14920643 0.025740027 -0.095208615
000010 e0 10 7c 3d 00 12 40 3a d4 45 16 3e 14 f4 3f be
       0.06153953 0.0007326901 0.14675075 -0.18745452
000020 68 dc 9a 3d dc b2 15 3e 98 c0 0a bd d8 a0 29 3e
       0.075615704 0.1461901 -0.033875078 0.16565263
000030 20 77 47 3c 40 ce 15 bc 18 38 3f 3d f6 06 5b be
       0.012174398 -0.009143412 0.046684355 -0.21389374
000040 0a 56 24 be 00 3f ae 3a 9c ab f0 3d f0 20 d8 bc
       -0.16048446 0.0013293922 0.11751482 -0.026382893
000050 ea a6 01 3e c6 58 3a 3e 08 a4 1b 3d 20 62 08 bd
       0.12661329 0.18197927 0.03799823 -0.033296704
000060 44 6e 63 3e f6 35 24 be 0c 2a 24 be 00 2b 6b bc
       0.22210032 -0.1603621 -0.16031665 -0.014353514
000070 34 5b 6b be be 12 4b be e0 b8 cc bd ce 81 4f be
       -0.2298401 -0.19831368 -0.099961996 -0.2026436
000080 ec d0 b2 bd 3e d6 28 be e0 64 ea bd 2c b1 6a 3e
       -0.08731255 -0.16487977 -0.11445022 0.22919148
000090 14 e2 8d bd c4 9e 60 be 88 29 12 be 40 5b ad bd
       -0.069278866 -0.21935564 -0.14273655 -0.0846467
0000a0 cc f3 8f 3d b8 9a b0 3d 08 41 61 3d 14 f6 fe 3d
       0.070289224 0.0862326 0.05499366 0.124492794
0000b0 24 b5 23 be e4 43 f6 3d 7c 76 3c be 9c 4e 42 3e
       -0.15987068 0.12024668 -0.18404573 0.189753
0000c0 40 9e ef 3d f2 b6 1f be 80 55 8d 3b 04 be 99 bd
       0.11700106 -0.15597132 0.004313171 -0.07506946
0000d0 20 83 06 bc d0 30 7e 3e 34 52 ba 3d ac 91 ad 3d
       -0.008209974 0.24823308 0.0909771 0.0847505
0000e0 38 21 d6 3d ea 42 2a be 40 58 00 3d 10 9e 89 bc
       0.10455555 -0.16627088 0.03133416 -0.016799003
0000f0 4e 8d 20 be 68 79 bd 3d 68 ee 07 bd 12 fe 38 3e
       -0.15678903 0.09251672 -0.033186346 0.1806567

fc.weight f4 [2, 16]
000000 50 a8 63 3e 38 9d eb bd a0 6c 26 bc 6c 86 ad bd
       0.22232175 -0.115045965 -0.010157734 -0.084729046
000010 60 1d d0 3d 50 80 98 3d 00 08 87 b9 50 7f 66 3e
       0.10161853 0.07446349 -0.00025755167 0.22509503
000020 a8 c9 89 3d 90 8c a7 3d e0 78 1b bc b8 21 6c be
       0.06727916 0.08181107 -0.009489268 -0.23059738
000030 48 a8 0c be f4 e5 46 be 02 a1 55 3e 00 bc 5e 3b
       -0.13736069 -0.19423658 0.20862201 0.0033986568
000040 00 93 26 bd c8 fe 05 3e 4e fe 40 be 98 d5 5b bd
       -0.040667534 0.13085473 -0.1884701 -0.053670496
000050 74 9c 70 3e 50 a8 29 bd a0 0a 38 bd 24 c3 a4 3d
       0.23497182 -0.04142028 -0.044932008 0.080450326
000060 58 4f 37 3e 56 22 31 3e fa 7c 4c 3e c6 ad 2e be
       0.17901361 0.17298254 0.1996955 -0.17058477
000070 f0 03 23 3e e2 db 0f be 3a 79 76 3e 96 17 4d be
       0.15919471 -0.14048722 0.24069682 -0.20028529

fc.bias f4 [2]
000000 90 a5 5d be 28 98 53 3e
       -0.21645188 0.20663512
