omni/sdu/ai/examples/LSTM/model/modelv6L.pth (torch, 127784 bytes, 18 tensors)

lstm.weight_ih_l0 f4 [128, 12]
000000 b6 0d d5 be 99 d9 ad be 24 66 28 bf be ac ba 3e
       -0.41612023 -0.33955076 -0.65780854 0.36459917
000010 06 ee db be f0 b1 04 bf 81 01 a0 3e a2 46 98 3d
       -0.42955035 -0.5183401 0.31251147 0.07435347
000020 1f f3 90 bc f5 4b 11 bf 24 2a 4f be b8 51 30 3e
       -0.017694054 -0.56756526 -0.20230919 0.17218673
000030 3c ba ac 3e 51 03 61 bd ca f7 ad bb 6b 6a c1 bd
       0.33735836 -0.054934803 -0.00530908 -0.09444126
000040 8b b2 b8 bc a4 ad af bd aa f4 e8 3e 43 8f 65 3e
       -0.022546073 -0.08578041 0.45499164 0.22417931
000050 2e b8 5f 3f a1 69 ca bd 75 38 12 3e c9 d9 7b be
       0.8739041 -0.09883428 0.14279349 -0.24594797
000060 03 52 06 3e ec e4 bc 3d 1e a9 43 be 20 9f 80 be
       0.13117222 0.09223351 -0.19107482 -0.25121403
000070 5c 24 be 3d 30 12 e4 bd a2 a8 cd 3d 24 5b 5f 3e
       0.09284279 -0.111362815 0.1004193 0.21812111
000080 14 90 2f 3f 19 f3 9d 3b 2d 2a 06 3f 0e 20 57 bf
       0.6857922 0.0048202393 0.52408105 -0.84033287
000090 e0 91 08 bf 40 8b 11 3e c2 0a 36 3e bc d4 91 be
       -0.5334759 0.14213276 0.17777541 -0.28482616
0000a0 65 b7 ce be b4 25 bd 3f 91 18 93 3d ce 35 6a 3e
       -0.40374294 1.4777131 0.0718242 0.22872087
0000b0 0d 4d 34 be ba 73 95 bf 39 a1 9c be 11 39 4c 3f
       -0.17607518 -1.1675942 -0.30591753 0.79774576
0000c0 ee ff c9 3e a4 a3 60 3d b0 72 9e 3e 7f 5d 08 be
       0.3945307 0.05484356 0.30946875 -0.13316916
0000d0 29 a6 ec 3d 05 66 01 3f da 50 a3 be 88 2d d0 bd
       0.1155513 0.50546294 -0.31897622 -0.101649344
0000e0 96 6c 53 3f 73 61 34 3e 1a 8b 50 be d2 73 f8 3e
       0.82587564 0.17615299 -0.20365563 0.48525864
0000f0 e2 97 b4 3e 54 a7 71 3d da 57 92 bc aa 92 1a bd
       0.35272127 0.058997467 -0.017864157 -0.037737526
000100 22 54 9b 3d d1 31 62 bf 1d 09 a4 be 15 d3 54 be
       0.075844064 -0.88357264 -0.32038203 -0.20783646
000110 f4 98 b9 3e 6f 71 ec be bb aa 5c 3f d0 42 6f bd
       0.36249506 -0.46180293 0.86198014 -0.058413327
000120 e9 2a d2 be 81 84 1d 3e 82 7f 12 3f 18 80 c2 3c
       -0.41048363 0.15382577 0.5722581 0.02374272
000130 70 0c 8a be d1 59 21 3f 1f 14 0d bf cd dd 14 3f
       -0.26962614 0.63027674 -0.5510883 0.5815094
000140 3f d4 aa 3e f6 0a 1e 3f 06 9e 7a 3f 24 0a a6 bc
       0.33365056 0.61735475 0.97897375 -0.020268507
000150 f4 97 8c be e3 9e de 3e 3c 1d ca 3e 87 28 18 be
       -0.2745968 0.43480596 0.3947543 -0.1485921
000160 1c 13 53 be 61 2f 76 3f 3b a2 d5 3b 12 52 04 bf
       -0.20612758 0.96166044 0.0065195835 -0.5168773
000170 9e 3a 92 38 b1 0c 0d 3e 9a 6e e2 3e 0a 12 56 3e
       6.972741e-05 0.13774373 0.44225007 0.20905319
000180 bf ea 6b 3d e7 d2 f8 bd 11 67 95 3d 15 e5 83 3e
       0.05759692 -0.121496014 0.07295049 0.25760713
000190 f7 62 cd 3e 2a 89 b4 3e a0 c5 69 bc 35 4a 01 3e
       0.40114567 0.35260898 -0.014268309 0.12625964
0001a0 0c de 02 3e 44 bf 6b 3e 0b f4 2a 3e 06 6f 0b 3e
       0.12780017 0.23022181 0.16694658 0.13616571
0001b0 17 95 76 bd a4 ab 8a 3e f1 a3 85 bc cf ca 59 bd
       -0.060200777 0.27084076 -0.016313525 -0.05317193
0001c0 49 90 53 3e 8d e3 74 be ab f5 46 bd 23 85 e9 3e
       0.20660509 -0.23914929 -0.04857413 0.45609388
0001d0 91 e2 82 3d 90 9d 13 3d 6b d8 61 3e 0b 24 41 3d
       0.0639087 0.036038935 0.22055213 0.047153514
0001e0 f6 92 4b be fe 57 dd 3e 13 47 46 3f e3 a8 fc be
       -0.1988028 0.43231195 0.774522 -0.493476
0001f0 51 c4 88 3d 97 a3 81 3f d9 e6 34 3d ba be aa 3e
       0.066780694 1.0128049 0.044165466 0.33348638
000200 b8 be 52 3f 96 c0 1f be a0 ee c8 be e7 8d 58 3e
       0.82322264 -0.1560081 -0.39244556 0.21147881
000210 18 5f 2f 3e a9 ff c3 be 95 d0 82 3e 2d 1b bd 3d
       0.17126119 -0.3828099 0.2554976 0.09233699
000220 9f ae e9 bd 00 4f 96 be 1e 6f fc be d4 9a f8 be
       -0.114102595 -0.29357147 -0.49303526 -0.48555624
000230 67 63 e0 bd d7 36 29 bf 4d 1e 7c bf a7 0f 46 3f
       -0.109564595 -0.66099304 -0.98483735 0.77367634
000240 80 14 3a be 05 1e 99 3e 52 1d 0c 3f c8 e8 4d be
       -0.18171883 0.29905716 0.5473224 -0.2010833
000250 61 e7 ae be 83 09 cc 3e ae a3 48 be 4f f5 09 3f
       -0.34160903 0.39851007 -0.19593689 0.53889936
000260 ee b2 4e 3f e6 08 23 be 06 20 ff be 44 dc eb be
       0.80741775 -0.15921363 -0.4982912 -0.46066487
000270 8c bc 5f 3d 4b 7d 04 3e 38 04 0b 3f 33 01 0a be
       0.05462317 0.1293842 0.5430331 -0.1347702
000280 fc cd 3a bc 72 b4 c9 3e 28 bd 91 3d 11 09 c2 3e
       -0.01140165 0.3939548 0.07116157 0.37897542
000290 5e 19 5b 3f 47 23 82 3e 7b e6 ea be 73 82 d2 be
       0.8558558 0.2541754 -0.45878968 -0.4111515
0002a0 ea 78 09 bc 99 9e 65 3e 7e 9e a9 3e 91 31 1c 3d
       -0.008390645 0.22423781 0.33128732 0.038133208
0002b0 da 86 90 3e 3f 46 e1 3d 7d 1d da be 61 62 bf 3d
       0.28227884 0.109997265 -0.42600623 0.09344936
0002c0 59 4e 2f 3f a7 df f6 be e4 90 11 3f 93 5f 40 3e
       0.68478924 -0.48217508 0.5686171 0.18786459
0002d0 8d 95 dc be 63 c6 c0 3d 31 ca a6 3e b2 62 a0 be
       -0.43082848 0.09412839 0.32576135 -0.313253
0002e0 c4 3e 7c bd 15 43 7a 3e 4e 07 bd 3c 7c bc d5 3e
       -0.061583295 0.24439652 0.023074772 0.41745365
0002f0 9d 5a 51 3f 00 73 99 3f 5d 82 93 bf e6 8f 01 bf
       0.8177889 1.198822 -1.1524159 -0.50610197
000300 b7 a7 06 3e e6 ea b5 3c 23 7c 63 3e d8 c8 07 3e
       0.13149916 0.022206735 0.22215323 0.1326021
000310 91 3f ba be 2d 9e 4a 3e 0b f3 c2 3e 29 0f fb 3d
       -0.36376622 0.19786902 0.38076052 0.12258751
000320 e6 d1 94 3e 44 45 1c bf 44 d1 0d 3f ba 26 ea 3e
       0.2906639 -0.6104319 0.5539744 0.4573267
000330 39 00 f3 3e 8e e4 93 be 2b e1 ff 3e cb f9 fe bb
       0.47461107 -0.2888531 0.49976477 -0.0077812425
000340 8b 8c 56 be 64 46 d9 3e 0a a1 1f bf e0 c3 9d be
       -0.2095205 0.42436516 -0.623551 -0.30813503
000350 49 bd 18 3e 09 78 84 be 92 72 23 3e 3c f1 24 bf
       0.14915957 -0.2587283 0.15961674 -0.64430594
000360 ca a1 c5 be 4c c7 00 3f 62 14 af 3e e9 2d f2 be
       -0.38599998 0.503041 0.34195238 -0.47300652
000370 1f 8f ef bd 83 55 99 be 1d 4f 50 3e e1 47 b9 3e
       -0.1169722 -0.29948053 0.2034268 0.36187652
000380 cf a9 d9 bd b8 ca 5d 3e e7 fd 48 bf f5 05 e6 3c
       -0.106280915 0.21659362 -0.78512424 0.028079012
000390 6a bf d6 be 79 d2 62 3f 82 cf 9e bc 3d 36 fb be
       -0.41942912 0.88602406 -0.019386057 -0.49064818
0003a0 03 5f 83 be c0 f1 84 3c 78 37 b2 3e 98 fd 9d bd
       -0.25658426 0.016228557 0.34807944 -0.07714385
0003b0 8d 7d 5a 3e 25 37 37 bf 59 9e 5f bf dd 6d 58 3f
       0.21336956 -0.7156852 -0.87350994 0.8454264
0003c0 52 ad ca be 94 60 46 3f 3b 00 b0 3d f7 01 fe be
       -0.39585358 0.77491117 0.08593794 -0.49610874
0003d0 0f 61 da be d2 1b c9 be d6 3d db bd f0 a7 31 3f
       -0.42652175 -0.39279038 -0.10705154 0.6939688
0003e0 d0 06 7f 3e ca b3 50 3d fb f7 78 be 94 dd 47 3f
       0.24904943 0.05095271 -0.24313347 0.78072476
0003f0 36 f7 af 3d 44 27 77 3e 11 d3 04 3c b2 3b 38 be
       0.085920736 0.24136072 0.008106963 -0.17991522

lstm.weight_hh_l0 f4 [128, 32]
000000 3e 24 65 be 7c 60 cb 3d e2 d6 80 3e b5 23 b5 bd
       -0.22377107 0.09930512 0.25163943 -0.08844701
000010 d4 fd 26 3d 34 50 92 3d cc 46 d0 be df e2 ab be
       0.040769413 0.07144204 -0.40679014 -0.33571526
000020 fd 44 2a 3e ef c8 ef bd 7c b9 83 be ee a0 9b be
       0.1662788 -0.11708247 -0.2572745 -0.30396217
000030 47 cf f1 3d d3 60 10 3f 9c 35 95 bd 9a 98 d1 be
       0.11807113 0.5639774 -0.07285616 -0.40936738
000040 70 ba eb 3e 8a 40 84 3e 68 6a 25 3e b3 11 21 3e
       0.46040678 0.2583049 0.16153872 0.15729408
000050 af b1 15 bf 0b 5a 90 be 4e 2f 33 3e 7b 42 de 3e
       -0.5847425 -0.28193697 0.17498514 0.43410096
000060 ef e3 91 be c0 8c 12 3d 98 03 fa 3e d2 e3 09 3f
       -0.28494212 0.03577876 0.48830867 0.5386325
000070 ea ca 9f be a5 8d c5 3d d1 d7 fe 3e ac 54 08 be
       -0.312095 0.09646157 0.4977403 -0.1331355
000080 d9 e7 0a 3e 48 81 de 3d 8b 98 a5 be 5f 74 b7 be
       0.13565005 0.10864502 -0.32342944 -0.35830972
000090 5c 2b cd bd bd 4f 9f 3e 4e f8 c7 bd 86 bc f0 bc
       -0.10018036 0.31115523 -0.09764157 -0.02938677
0000a0 4b c7 00 bf 1b 82 fa bd 2a 4f b0 3c 8d 36 1e 3e
       -0.50304097 -0.12231847 0.021522123 0.15450497
0000b0 55 0d 00 be 1a 85 7b 3f 61 cd 80 3e f7 2e 0e 3f
       -0.12505086 0.9824997 0.25156692 0.5554041
0000c0 d2 2f bc 3e 99 c4 a0 3a f4 5f 9a 3e 2d 79 03 3f
       0.36755234 0.0012265622 0.3015133 0.51356775
0000d0 f5 aa 19 be 6a 40 13 bf e0 1c 41 3f cb 85 a8 3e
       -0.15006621 -0.57520163 0.75434685 0.32914576
0000e0 3b f7 88 3e f9 c7 be 3d 51 03 27 3f af 91 34 3e
       0.26751122 0.093154855 0.65239435 0.17633699
0000f0 c6 2c 5b 3f 7e e0 da bd 14 18 dd 3d 60 42 91 3e
       0.85615194 -0.1068735 0.10795608 0.28370953
000100 28 3b a5 bd 12 e1 28 3f 99 c9 b9 be 03 8a b5 3e
       -0.08067924 0.6596843 -0.3628662 0.35456857
000110 fb 9f c7 3e 09 59 0d 3f 04 f8 8e 3f 04 e1 e1 be
       0.38989243 0.5521398 1.1169438 -0.44116986
000120 9b ac 67 3b 4e 9c 7c be a1 2e f2 3d 8e b3 09 bf
       0.0035350684 -0.24669 0.118253 -0.53789604
000130 63 58 37 3e 3e 88 9b 3e 09 7b 07 3f 8a e0 4a 3d
       0.1790481 0.30377382 0.5292211 0.049530543
000140 60 87 1a bf 1d 38 d5 3b c8 8f 10 be 9a f8 2f 3f
       -0.60362816 0.0065069334 -0.14117348 0.6873871
000150 3e e6 fb be fb 96 7f 3e fb 56 ab bd 8d b9 10 3f
       -0.49199098 0.24959938 -0.083661996 0.5653313
000160 52 10 95 bd 3c 91 03 bf 14 91 2c bf ec 79 ba 3e
       -0.072785035 -0.51393485 -0.6740887 0.36421144
000170 f6 d1 c3 3c 6c 29 c6 be 5e 38 cd 3e 55 f2 53 bf
       0.023903828 -0.38703477 0.40082067 -0.82791644
000180 59 1f 71 3e 56 66 94 be 83 02 1e be b8 61 37 3e
       0.23547114 -0.28984326 -0.15430646 0.1790837
000190 d7 8c 01 3f e3 1d cc be ec 93 43 3e ab ee 2e bf
       0.5060553 -0.39866552 0.19099396 -0.6833293
0001a0 ff f7 4f 3e 94 67 57 be 68 40 c1 bd 39 f2 0f bb
       0.20309447 -0.21035606 -0.09436113 -0.0021964444
0001b0 55 d0 33 bf 3e c7 18 be f8 be a1 bd e8 3a 93 be
       -0.70239764 -0.14919755 -0.078977525 -0.2875588
0001c0 40 c3 bb 3c cb 32 ae 3e 6f ba c5 be 05 f5 31 be
       0.02292025 0.34023127 -0.386188 -0.17378624
0001d0 46 58 a1 bd b3 32 eb be e8 10 fd 3e 0b 8c 41 3f
       -0.07878165 -0.45937118 0.4942696 0.75604314
0001e0 91 4e e7 be 11 44 d9 3c 33 64 71 be a4 5d f6 be
       -0.4517713 0.026521714 -0.23573379 -0.48118317
0001f0 c1 42 7b be 70 0a 06 bf 76 6a 3d 3e 58 6b 7f 3e
       -0.24537183 -0.52359676 0.18497643 0.24943292
000200 f2 02 57 3e 56 f9 e4 3d 87 e0 31 bf 88 91 dc be
       0.20997217 0.111803696 -0.69483227 -0.43079782
000210 ec 6f b0 be 51 d9 0b 3e 66 a4 a7 be fb 95 c6 bc
       -0.3446039 0.13657118 -0.32742614 -0.024241438
000220 f9 e8 a1 be 51 53 53 be 5f 91 8c bc 4c f0 a0 bb
       -0.31623057 -0.20637251 -0.017159162 -0.004911458
000230 2b ab 09 bf a2 00 07 be b1 79 87 3e ac f2 70 3f
       -0.53776807 -0.13183835 0.2646003 0.9412029
000240 b4 d5 21 bc e2 47 d7 3d 50 1e 61 bf 97 d8 83 bf
       -0.009877611 0.105117574 -0.8793688 -1.0300473
000250 4a 62 e7 3e 8c 47 52 bd 60 a4 dc be 1b f6 ab be
       0.45192176 -0.051337764 -0.43094158 -0.335862
000260 75 1d d6 3e 31 b1 0a be 91 2d 6b 3e cb d3 2b 3d
       0.4181935 -0.13544156 0.22966601 0.04195003
000270 4c 89 d4 be 42 aa 39 3e f5 fe ec be 7c 50 64 be
       -0.41511 0.18131354 -0.46288267 -0.22296327
000280 15 a4 72 3f 63 32 0b 3f 1f d1 8d bd c6 fb a4 be
       0.9478162 0.5437376 -0.06924652 -0.32223338
000290 47 f0 b6 3e e4 21 1f 3f d1 4a 81 3c 8c fd e7 bc
       0.35730192 0.6216109 0.015782746 -0.028319143
0002a0 45 75 45 bd 67 e5 ca be b1 3e 97 be 61 57 03 be
       -0.04820754 -0.39628145 -0.29540017 -0.12826301
0002b0 14 59 4e 3e 49 51 a1 3e 64 89 17 3f 76 16 12 3f
       0.20151168 0.31507328 0.59194016 0.5706552
0002c0 25 a4 89 3f ff 36 71 be 61 28 05 be 06 0b 3a bf
       1.0753218 -0.23556136 -0.13003685 -0.7267307
0002d0 3b 99 9c 3c a6 d0 64 3c 71 59 01 3f 68 8d 28 3e
       0.019116035 0.013965761 0.505271 0.16460192
0002e0 19 8b b5 3e 2a d6 80 be 8f 41 90 3e 48 d6 58 be
       0.35457686 -0.25163394 0.28175017 -0.21175492
0002f0 9c 36 c4 3e d2 4a e1 bd 05 e9 94 be 94 5a 32 3e
       0.38322914 -0.11000599 -0.2908403 0.17417365
000300 df d7 97 3f de ed c3 3e e4 13 95 3e 62 8c 07 be
       1.1862754 0.38267416 0.29116738 -0.13237146
000310 ba 7a dd 3d 3a fd f1 be 47 9f 31 3f 32 84 2a 3f
       0.10814424 -0.4726351 0.6938366 0.66607964
000320 30 e0 86 3d 93 d9 c4 bc e9 66 0f 3f 83 de e7 bc
       0.06585729 -0.024029529 0.56016403 -0.028304344
000330 f1 30 16 bd d6 b3 f4 3c 0e 6c 09 3f 71 a0 7d be
       -0.036667768 0.029870909 0.53680503 -0.24768235
000340 2e dd 2f 3f 2f e5 1c be 57 e4 07 3f 37 60 cf be
       0.6869687 -0.15321802 0.53082794 -0.40503094
000350 48 a2 a6 3e 97 f9 0a bf 7f a0 10 bf fe 5e 22 3f
       0.32545686 -0.54287094 -0.564949 0.63426197
000360 19 5a 83 3c c0 91 aa be 65 8d 3f be 76 30 4b be
       0.016034173 -0.33314323 -0.18706281 -0.19842705
000370 9c c5 d7 be 49 dc 55 bf 05 21 e5 be 4f 82 8f 3d
       -0.4214295 -0.83539253 -0.44751754 0.07007276
000380 95 b4 02 3f 6b 36 cf be 68 8d c6 3e f4 bd 22 3f
       0.51056796 -0.40471205 0.3877976 0.63571095
000390 ea eb 05 be e4 c3 e6 be d1 c3 9a be 9b b0 b0 3d
       -0.13078275 -0.45071328 -0.3022752 0.08627435
0003a0 3f 5b 42 3d d9 66 8a 3e 3e 64 8f 3e d7 12 ac be
       0.0474503 0.27031592 0.28006166 -0.33608124
0003b0 c6 c2 6e 3e 61 ec a9 3e 26 04 90 bf 84 91 29 3f
       0.23316488 0.33188155 -1.1251266 0.66237664
0003c0 43 b6 1b bf 26 c2 a5 3e 95 f5 51 3e e9 f7 b7 3c
       -0.60824984 0.32374686 0.20503838 0.02245708
0003d0 02 20 76 be 29 31 87 3e ee 6b d3 bc 2d 7c 12 3f
       -0.24035648 0.26404694 -0.0258083 0.5722073
0003e0 bc 91 0e 3e 40 87 84 bd 9c 7a c0 be 72 3d 80 bd
       0.13922781 -0.064711094 -0.37593544 -0.0626172
0003f0 bc 4b 04 be 98 7b 08 3f 94 67 b9 be e8 2e 89 be
       -0.12919515 0.5331359 -0.36211836 -0.267936

lstm.bias_ih_l0 f4 [128]
000000 f2 91 b4 be 57 47 d4 3d 45 42 fd bd 7c 0b 8a 3d
       -0.35267597 0.103651695 -0.123661555 0.06740472
000010 48 96 08 3d cc 22 16 be 71 03 c8 3e 33 ed d5 3b
       0.033346444 -0.14661711 0.39065126 0.0065285205
000020 07 3e 87 3e 6d 96 02 be 84 d5 18 3e 3f 23 31 be
       0.2641451 -0.12752695 0.149252 -0.17298602
000030 93 6a de bc f2 38 f6 3e cc f6 71 be 68 a2 d4 3d
       -0.027150428 0.4809032 -0.23629302 0.10382539
000040 37 84 c4 3d 49 5a bd 3e ee a3 8c 3e 94 a6 2c 3d
       0.095955305 0.36982945 0.27468818 0.04215105
000050 e8 93 8f 3d 46 b0 0d be a7 4f 30 be ba 8c c2 3c
       0.07010633 -0.13836774 -0.17217885 0.023748744
000060 50 78 14 be 7c f5 17 3e 67 e3 d4 bd f2 c3 22 bd
       -0.1449902 0.14839739 -0.10394936 -0.03973765
000070 e9 17 7f 3e d5 ae 35 3e 20 e4 1e 3e d3 df a0 3e
       0.24911465 0.17742474 0.1551671 0.31420764
000080 17 e1 7e be 48 8e 84 be c3 b9 73 be aa 3b 94 3e
       -0.24890552 -0.25889802 -0.23801331 0.2895177
000090 0e ba b3 be 6a 25 74 be e7 bd a1 be d4 14 ac be
       -0.35102886 -0.23842397 -0.31590196 -0.3360964
0000a0 26 c2 5d be a9 b7 93 be c6 01 bf bc 1c 01 44 be
       -0.21656093 -0.2885106 -0.023316275 -0.19141048
0000b0 4e b4 75 bd 4e 45 39 be 31 16 a4 3d 3b 1a 91 be
       -0.059986405 -0.18092844 0.08012045 -0.28340325
0000c0 b4 49 07 bd 77 4e e5 3d 92 d9 0c 3e 4f 64 cc be
       -0.033029273 0.111966066 0.13754871 -0.3992028
0000d0 94 15 9b 3b c3 a9 79 3c 6e 2f 47 be fd 9c dd bd
       0.004732797 0.015238228 -0.19451687 -0.10820959
0000e0 c2 7f 69 3c 12 92 77 3e 27 73 05 be e7 38 a7 be
       0.014251651 0.24176815 -0.13032208 -0.326606
0000f0 15 77 be be 9e b4 01 be 47 41 3b be 09 45 ee 3d
       -0.37200227 -0.12666556 -0.1828662 0.11634261
000100 b5 10 8f 3b 81 06 34 3d 4d 9b a1 3d 19 44 7a 3d
       0.0043660053 0.043951515 0.078909494 0.0611001
000110 c6 53 a1 bd 28 b2 1c 3d f2 ed 8f be c7 69 60 be
       -0.07877307 0.03825584 -0.28111225 -0.21915351
000120 d4 c8 fd 3d 26 f2 6d 3e dd 27 33 be f7 7f b2 bd
       0.123918205 0.23236904 -0.17495675 -0.087158136
000130 6a 68 38 be 13 8e 1a 3e 61 b0 95 bd e8 e1 65 3e
       -0.18008581 0.1509326 -0.07309032 0.22449458
000140 a4 1f 03 be 5c f3 8a bc 20 15 1f 3d 83 02 58 be
       -0.12805039 -0.016961746 0.038838506 -0.21094708
000150 0c d9 99 bd 5b 76 2d 3e a5 6c 26 3d 90 1d 8c bd
       -0.075121015 0.1693968 0.040630955 -0.06841576
000160 16 dd 11 3d 9c 27 17 bd 31 d0 73 be 44 20 94 be
       0.035611235 -0.03690301 -0.23809887 -0.28930867
000170 18 45 78 be 12 2a 36 bd 18 c5 c5 bd 19 74 1c 3e
       -0.24245107 -0.044473715 -0.09656733 0.15278663
000180 e7 5b 94 3d 4a 11 a8 be 8f 65 28 be 6f b8 da 3e
       0.072440915 -0.3282569 -0.16444992 0.42718837
000190 d8 0a ff bd 26 d5 f2 bd 07 a0 1a 3f ac 3d 1f be
       -0.1245324 -0.11857061 0.6040043 -0.1555087
0001a0 60 11 93 bc 49 3a 0d be 75 b6 36 3e de 86 ab 3d
       -0.017952621 -0.13791765 0.1784304 0.08375333
0001b0 09 a1 a3 3e 27 35 17 be 09 07 61 bd 65 4a 79 3e
       0.31958798 -0.1476637 -0.05493835 0.24344786
0001c0 3b 5b dd bd 17 22 99 3e f7 f2 b9 3e c4 57 e2 3c
       -0.108084165 0.2990882 0.3631818 0.02762974
0001d0 69 ed 4a bd 81 9c 99 3d d0 3a ad bd e4 b7 8c 3e
       -0.04954282 0.07500554 -0.08458483 0.27484047
0001e0 a8 50 1d be 91 55 1e 3f f0 2d f9 3e cc 02 24 3e
       -0.15362799 0.61849314 0.4866786 0.16016692
0001f0 97 44 eb 3e e2 56 ee 3d 62 d0 33 3e bf 9f 62 3e
       0.45950767 0.11637665 0.1755996 0.22131251

lstm.bias_hh_l0 f4 [128]
000000 80 e3 ea bd 9f ce 49 3c 5f 3f 17 be 0e 6d 1b 3e
       -0.114691734 0.012317329 -0.14770268 0.1517832
000010 2b 3b 1e 3e 35 0e 56 3d 98 ab 03 3f 1e 01 b4 3d
       0.15452258 0.052259643 0.51433706 0.087892756
000020 2c cf 10 3e da 77 73 bc 1b b8 09 3d 35 b9 22 be
       0.1414153 -0.014860118 0.033622842 -0.15890963
000030 12 d2 d9 3d 28 c3 96 3e 35 fe 15 bd e6 e7 75 3d
       0.10635771 0.29445767 -0.036619384 0.06003561
000040 92 d7 15 3e a2 72 00 3f 9e 9f e8 3d 62 3d b9 bc
       0.14633015 0.50174916 0.113585696 -0.022612277
000050 94 ad 74 bd f8 c5 b6 bd 09 56 07 be 14 63 08 3e
       -0.05973585 -0.08924478 -0.13216414 0.13319045
000060 33 3f 1f be fb 55 48 3e a4 6f 45 3e b3 a5 17 bd
       -0.15551452 0.19564049 0.19280869 -0.037023257
000070 9b 27 a5 3e 4f 25 a3 3e 08 8e 7f bd 48 3f 7b 3e
       0.3225678 0.31864402 -0.06239131 0.24535859
000080 bb df c9 bd 27 6f 2b be 68 8f 7a bc 6d c5 c1 3e
       -0.09857126 -0.1674162 -0.01529298 0.37845936
000090 69 51 0a be 14 1e 90 be 31 91 d3 be b8 08 ee be
       -0.13507618 -0.28147948 -0.4132171 -0.46491027
0000a0 d1 90 30 be 05 a9 32 be b5 7d 99 3d a0 7d 85 be
       -0.17242743 -0.17447288 0.0749468 -0.26072407
0000b0 ee 7d 09 be 7e fb 6f bc e1 c4 45 3d 14 18 91 bd
       -0.13426945 -0.014647363 0.04828346 -0.07084671
0000c0 dc a3 f0 bd 4e 4e 2a be c2 68 ce 3d d5 0b a8 be
       -0.11750004 -0.16631433 0.10078575 -0.32821527
0000d0 06 00 27 3e 99 b6 05 be 28 fa db 3d ce 2d 4a bd
       0.16308603 -0.13057937 0.10741073 -0.04936009
0000e0 bb 83 63 3e 1a a9 1a 3e d3 3d 98 be fb 64 0d bd
       0.2221822 0.1510357 -0.29734668 -0.03452013
0000f0 d8 1d 1b be 8c 44 b6 bd f2 bc d3 bd b8 6b a5 3e
       -0.15148103 -0.08899793 -0.10338773 0.32308745
000100 92 4c 7b 3d bc 38 ed 3c 9e 22 95 3e 18 06 a6 3e
       0.06135232 0.028957717 0.29127973 0.32426524
000110 7c b3 12 3d 5a 01 28 bd 49 b1 7f bd 37 05 8c bd
       0.0358157 -0.041016914 -0.06242493 -0.06836932
000120 61 cd a5 3e 85 01 72 3d c3 62 a2 bd c7 86 09 bd
       0.32383254 0.05908348 -0.079289936 -0.0335758
000130 e8 fd 71 be ac f9 19 3e f6 ef 95 bd c1 f2 e1 bd
       -0.23632014 0.15036649 -0.073211595 -0.1103263
000140 d2 d3 a4 3d d2 08 07 3e e1 4a 28 be 79 5f e3 bd
       0.08048214 0.13186958 -0.16434814 -0.11102194
000150 40 d0 5e bd d2 23 d9 3d 59 df 14 3d 16 77 85 bd
       -0.05439782 0.10602535 0.036345813 -0.065168545
000160 2a fe 38 be 91 61 35 bd b1 eb c6 3c cc 27 9c be
       -0.18065706 -0.0442825 0.024282308 -0.30499113
000170 b1 8f 06 3d 05 05 2d 3d 52 50 40 be 97 a9 1c bd
       0.03285188 0.042241115 -0.1878064 -0.03824767
000180 38 88 be bd 9d 29 c6 bd f0 12 2b be a1 48 06 3e
       -0.093033254 -0.09675906 -0.16706443 0.13113643
000190 cf 2a b1 be 9f e7 ed bd db d2 cb 3e 73 5e 83 be
       -0.34602973 -0.11616444 0.39809307 -0.25657997
0001a0 5b 64 9d 3e 87 ff 4c bd 45 f3 3c 3e f7 84 00 3e
       0.30740628 -0.050048377 0.18452175 0.12550722
0001b0 89 16 b7 3e af 08 35 bd 30 4e d6 bd 9a 15 09 3e
       0.3575938 -0.044197734 -0.10464132 0.13387147
0001c0 0d a6 ef ba 17 77 c0 3e f9 76 f2 3d 64 ea f9 bd
       -0.001828374 0.37590858 0.118390985 -0.122029096
0001d0 f2 38 95 bd 5b 6f 45 3b 22 48 1b be 11 37 db 3d
       -0.07286252 0.0030126187 -0.15164235 0.107038625
0001e0 e7 f4 09 3e 4c e5 27 3f 5b ef e9 3e 9f c2 24 be
       0.13472329 0.65584254 0.45690426 -0.16089867
0001f0 ee 5c d1 3e 30 39 ad bd 41 d1 63 3d d3 1d a4 3e
       0.40891212 -0.08458173 0.055619482 0.32054004

lstm.weight_ih_l1 f4 [128, 32]
000000 8f 72 4e 3e 57 28 b1 bd 2f dd 2f bf c6 70 7d 3e
       0.20160888 -0.08650272 -0.68696874 0.24750051
000010 d5 33 14 bf bf be 53 3b df 8a b1 be d8 d6 c8 be
       -0.5789159 0.0032309738 -0.34676263 -0.39226413
000020 d5 a9 9c be b1 91 99 be 8d a4 0f bf 67 61 6c 3e
       -0.30598322 -0.29993966 -0.5611046 0.23084031
000030 86 26 71 bf 36 d8 76 be f6 7c 4f bf 75 4e d2 3d
       -0.9419941 -0.24105915 -0.8105005 0.10268871
000040 d5 dd 27 3f 43 8e 93 3d d5 47 08 be 7f 24 02 bf
       0.65572864 0.07204869 -0.13308652 -0.5083694
000050 4a fe 5e 3d 17 7c 5f bf e4 0b dc 3e 3b 56 56 3e
       0.054441728 -0.8729872 0.42977822 0.20931332
000060 0e 96 a9 be 66 cf 29 be d0 02 3d 3e 96 50 f9 bd
       -0.33122295 -0.16583022 0.18458104 -0.12173574
000070 7b cd 63 3f 03 85 9f 3e 85 9a 03 3e a1 6c 94 3e
       0.88985413 0.31156167 0.12851913 0.28989127
000080 05 55 99 3e f0 9e 98 3c cf 18 09 bf 0d 68 c6 3e
       0.29947677 0.018630475 -0.5355348 0.3875126
000090 c2 d4 34 3e 67 0b 8e be d5 d0 13 bf 81 3d f1 be
       0.17659286 -0.27743074 -0.5774053 -0.47117236
0000a0 19 de 66 bb b2 5b 47 3f f4 ab 79 3f 85 af 08 be
       -0.0035227595 0.7787429 0.97528005 -0.13348205
0000b0 e7 fc 84 be 4b 5b 0e 3f 40 fd ff bd 0b 89 3b 3f
       -0.259742 0.5560805 -0.124994755 0.73255986
0000c0 20 10 2f bf e5 37 4e be 8a 21 1b bf 34 55 0e bf
       -0.6838398 -0.2013851 -0.6059805 -0.5559876
0000d0 34 48 82 3e ed 06 4f bf 0d 4b c2 be 69 9d 80 be
       0.25445712 -0.8086994 -0.37947884 -0.25120094
0000e0 a8 94 8b 3e 90 46 34 bf ab 59 3d bf f7 60 e1 be
       0.27261853 -0.7042017 -0.7396495 -0.4401929
0000f0 c2 d5 00 3e e1 65 06 be 57 07 06 bf 9a cf 73 bd
       0.12581542 -0.13124801 -0.5235495 -0.059524156
000100 78 08 38 bf 52 65 f5 be 38 28 0d 3d 43 d4 eb 3d
       -0.7188792 -0.47928864 0.034462184 0.11515095
000110 e4 59 3c be 2e 86 c7 be 5d 59 60 bf 7d b5 88 3c
       -0.18393666 -0.38969558 -0.8763636 0.016688103
000120 d9 ea 8b 3e c7 24 4c bf d8 0e ef 3e 54 19 da 3e
       0.27327612 -0.7974362 0.46691012 0.4259745
000130 e5 5a 17 3f 87 4b c5 be 0c 6b 92 be 1e b9 8f 3f
       0.5912307 -0.38534185 -0.28597295 1.1228368
000140 a4 17 f7 3d 96 76 9b be 53 5e 1b 3f 58 ad fe be
       0.12065056 -0.3036391 0.606908 -0.49741626
000150 08 6d 6f bf 72 3a a2 3e b4 19 23 be 97 bb 06 bc
       -0.93525743 0.31685215 -0.15927774 -0.008223436
000160 e6 85 cb 3e ea cb fc 3e 73 b5 df 3d 7c 14 1d bf
       0.39750594 0.49374324 0.109232806 -0.6135938
000170 a9 21 46 bf f0 d1 27 3f eb 9f 2d 3f 67 ac 27 3f
       -0.7739511 0.65554714 0.6782214 0.6549744
000180 b9 24 00 3f 24 1c 41 be f0 0c 0e bf d9 39 11 be
       0.50056034 -0.18858391 -0.5548849 -0.14182223
000190 93 ca ba be 58 e2 c2 3e 9f bc 1e bf 98 d4 0e bf
       -0.36482677 0.38063312 -0.6200656 -0.5579314
0001a0 b6 78 6c 3e b7 f9 63 be 4a 05 78 3e d0 07 b8 3d
       0.23092923 -0.22263227 0.24220768 0.08985865
0001b0 ff 48 c0 3d e4 cb b5 3e bc 9b 8e 3d cb 29 2c 3f
       0.09388923 0.3550712 0.06963298 0.6725127
0001c0 90 17 a0 3f 1d d2 8e 3d db 7f ce be fb c3 be be
       1.2507191 0.0697367 -0.4033192 -0.37258896
0001d0 29 63 df 3d ef fc 27 bf 7f 13 e8 3e a3 83 b9 be
       0.10907585 -0.6562032 0.45327374 -0.36233243
0001e0 ac fb 72 3f 09 03 5f 3f ad f0 23 3f 05 94 f1 3e
       0.9491527 0.87114006 0.6403912 0.47183242
0001f0 d8 38 b8 3e 7d 88 10 be ef 67 e3 be b9 09 09 3d
       0.35980868 -0.14114566 -0.44415233 0.033456538
000200 dc c2 01 3f 2f db fb 3e 5b 32 f5 be cd 94 42 bf
       0.50687957 0.4919066 -0.4788998 -0.760083
000210 43 04 82 3f 5b 09 a0 3e c9 51 b8 3e 41 3f a1 be
       1.015755 0.31257138 0.35999897 -0.3149357
000220 f5 8c ae 3e 26 73 f4 3e ca 55 75 3f 83 a4 96 3e
       0.34091917 0.477441 0.9583403 0.29422387
000230 f8 d6 a9 3d ef 5e 56 be 11 b7 bf 3e e7 68 16 3e
       0.08292955 -0.20934652 0.37444356 0.14688455
000240 ad 78 e6 bd 94 fb 76 bf 7d 93 0e 3e 11 60 a1 3f
       -0.11253486 -0.9647763 0.1392345 1.2607442
000250 2c 9c 44 3e ee eb 20 3f 71 1a 19 3e 0e a3 c8 bd
       0.192002 0.6286 0.14951493 -0.09796725
000260 3e b9 9b 3d 06 3c 82 bc 96 c6 ca be da 4a 1f 3f
       0.076036915 -0.015897762 -0.39604634 0.6222359
000270 ef 77 5f 3e 2a 02 13 3f cb 28 ee bd 33 83 88 3e
       0.21823095 0.5742518 -0.116288744 0.26662597
000280 f3 50 71 bc 7a ad 46 bf 35 d7 4b be 91 80 02 3e
       -0.014728772 -0.77608454 -0.19906314 0.12744357
000290 62 68 a1 3e 0c ee 71 be 95 15 8c bf 7e fe 09 bf
       0.3152495 -0.23625964 -1.0944086 -0.5390395
0002a0 e3 65 c0 3d c8 60 39 3e 69 5b 97 be ac 3e e1 3e
       0.09394433 0.18103325 -0.29561928 0.43993127
0002b0 eb 03 5d 3f 13 4e 57 3f 99 2a 23 3e df 4d 72 be
       0.86334103 0.84103507 0.15934218 -0.23662518
0002c0 c7 e4 62 3e c3 2b 01 bf db 55 f8 bd a1 c5 b9 3e
       0.22157584 -0.504574 -0.12125751 0.3628359
0002d0 e7 8d 3d bf f7 d0 24 bf 59 2a ea 3e d4 d5 af bd
       -0.7404465 -0.64381355 0.45735434 -0.08585706
0002e0 44 02 f9 bc 88 34 3f 3e d1 78 08 bf 98 b0 69 3f
       -0.030396588 0.18672383 -0.5330935 0.91285086
0002f0 67 7c ce 3d df 76 9b 3f 20 37 8e 3f 8b 4f 95 3f
       0.100823216 1.2145652 1.1110573 1.16649
000300 10 51 13 be 53 da 0b 3e d5 7f 60 bd c5 6a 33 bd
       -0.14386392 0.13657503 -0.05480941 -0.043802995
000310 4e c4 8e 3e 79 69 61 bf 87 50 7b be 82 86 77 bf
       0.27884144 -0.88051564 -0.24542437 -0.9668962
000320 f0 d8 f1 3d 6f 56 d2 bd 6e 18 a8 3e c1 a2 86 be
       0.11808956 -0.10270392 0.32831138 -0.26296046
000330 d6 d0 2e 3f f7 0e cc 3b 22 60 36 3e 70 18 e7 bd
       0.6828741 0.00622737 0.1781011 -0.11283958
000340 67 c8 d7 be d2 d6 7f bd b2 c6 a2 bd c5 74 0d 3e
       -0.42145082 -0.062460728 -0.079480544 0.13814075
000350 4f e9 05 be ad d8 08 be 01 cd c5 3e a8 d5 d1 3e
       -0.13077281 -0.13363905 0.38632968 0.4098332
000360 5a 02 23 bf a1 f0 9b 3e b7 c1 d7 3e 23 3b 68 be
       -0.63675463 0.30457023 0.4213998 -0.22678809
000370 3e 9a 60 be 3a 79 2e 3f 4c f1 4e be 7c 06 5b 3f
       -0.21933839 0.6815373 -0.20209235 0.8555677
000380 1d ea 24 3f f0 bc c1 3e f6 43 8f be f1 1b 01 3f
       0.6441973 0.3783946 -0.27981538 0.5043326
000390 37 1e 21 3f c2 87 ad be 57 19 5d bf 1f b4 3a bf
       0.6293673 -0.33892637 -0.8636679 -0.7293109
0003a0 38 91 01 3f ee 04 1f 3f 9e ec 71 3f 6b 43 25 bf
       0.5061221 0.621169 0.94501674 -0.64555997
0003b0 f2 19 c9 3d b5 3c 0a 3f 54 3f df be 52 e3 83 3e
       0.09819402 0.5399888 -0.43603003 0.2575937
0003c0 a4 38 f2 3e 12 86 f9 be 0a 38 39 be df c3 25 3e
       0.47308838 -0.487351 -0.18087783 0.16188
0003d0 c0 60 1f 3f 93 fe 89 bf 23 53 aa 3a 73 7f 48 bf
       0.62257004 -1.0780815 0.0012994747 -0.7831947
0003e0 91 4c 23 bf 02 66 56 bf 8e 63 fa 3d fc 1d 69 3f
       -0.63788706 -0.837494 0.1222602 0.9106138
0003f0 d3 a6 09 3f a4 4b b7 3e 4c 23 8f be ab 2d 20 3f
       0.5377018 0.35799897 -0.27956617 0.62569684

lstm.weight_hh_l1 f4 [128, 32]
000000 f9 a4 24 bd f8 1f 8a 3d 67 91 ef be ad 11 43 be
       -0.040196393 0.06744379 -0.4679062 -0.19049712
000010 07 7c 11 3e 89 c0 81 be 13 49 ef be 88 6e 89 3c
       0.14207469 -0.25342205 -0.4673544 0.016776338
000020 2e bc 84 be 0e 65 bc be 6a 66 1b be a8 03 99 3d
       -0.2592482 -0.3679585 -0.15175787 0.074714005
000030 b7 d8 c5 3d 6c 2e b2 3e 25 99 e0 3d 45 db 11 3f
       0.09660476 0.34801042 0.1096671 0.56975204
000040 23 46 fa 3d d8 11 3d bd ca 5e 82 be e5 40 a0 3e
       0.12220409 -0.046159595 -0.25462943 0.3129951
000050 7e 8f 1a 3e 56 cc 1c bf 8f 15 0a bf a8 c1 36 3c
       0.150938 -0.6124929 -0.53939146 0.01115457
000060 3e 5f af 3d 47 e5 83 be 43 df 16 be 09 4f dc 3d
       0.08563088 -0.25760862 -0.14733605 0.10757262
000070 5c 94 b0 3e 59 09 0a bf ec 74 1d bd ce f3 6f be
       0.3448819 -0.53920513 -0.038441584 -0.23432848
000080 31 96 40 bd 15 99 80 3e 25 d6 94 bc 2f 99 61 be
       -0.047018234 0.25116792 -0.018168518 -0.22031091
000090 86 af 6d bd 9f 05 a8 3d 7b 5f a1 be 66 e3 f2 3e
       -0.05802872 0.08204197 -0.31518158 0.47439116
0000a0 89 ee 04 3f 6a 01 15 bf 66 a1 1d be 47 d1 d6 be
       0.51926476 -0.5820528 -0.153936 -0.4195654
0000b0 45 94 6b be 57 c2 91 bd 9b 3c 57 bd 98 33 1f 3e
       -0.23005779 -0.071171455 -0.052548032 0.15547025
0000c0 7f 4e df 3e bb 6c eb 3e 3e fa 8b bd ec 66 21 bf
       0.43614575 0.45981392 -0.06834839 -0.6304767
0000d0 f6 a6 d6 3e 17 c1 cb 3e 01 f6 dd 3d 01 79 5c be
       0.41924256 0.39795753 0.10837937 -0.21530534
0000e0 f9 5b 04 3b d5 1c 75 be d7 60 0b 3e e8 cb 89 3e
       0.0020196422 -0.2393678 0.1361116 0.2691338
0000f0 93 d7 b7 bd 1e e2 43 bf 8f 62 23 bd 1a a6 e9 be
       -0.089766644 -0.765169 -0.039888915 -0.45634538
000100 29 e5 16 bf 49 59 54 be 84 5d 5e be 81 6b df 3e
       -0.5894342 -0.20737185 -0.21715361 0.43636706
000110 f1 8b b0 bf 30 42 4d 3f 0b 51 ee be 9c ea 30 be
       -1.3792707 0.8017912 -0.46546206 -0.17276996
000120 b7 6d c1 be cc ba b0 bd a9 e1 d7 3d 2f 89 6b be
       -0.37779018 -0.08629379 0.10541088 -0.2300155
000130 a1 27 45 3e 9a 65 f5 be 30 3d fe 3d 15 d8 9a be
       0.19253398 -0.47929078 0.12414014 -0.30242983
000140 3c 03 d2 3e a8 df 5f 3e 40 c6 bf bd 30 3c 81 3e
       0.41018093 0.21862662 -0.09363985 0.25241232
000150 58 59 91 be 25 16 a2 be 71 05 48 3e c2 7b e7 bb
       -0.28388476 -0.3165752 0.19533326 -0.0070643136
000160 fd ab 3b bf 8e 31 02 3f cc d3 65 3e f5 01 3f 3d
       -0.7330931 0.50856864 0.22444075 0.046632726
000170 94 19 72 be 5d 48 ef 3e 93 65 28 3f fb 7e 05 bf
       -0.2364257 0.46734896 0.6577999 -0.5214688
000180 4c 6f 9f be 83 0c 27 3f 69 5c 7a be e9 63 f5 3e
       -0.311396 0.65253466 -0.24449314 0.47927788
000190 8e 71 32 3d 63 f2 97 3d b9 08 e2 be 3d 8b 46 3e
       0.043565325 0.074192785 -0.4414728 0.19389053
0001a0 50 d4 9c 3d d0 c8 a6 3e 8b 24 50 3f da 6f ed be
       0.07657683 0.32575083 0.8130576 -0.46374398
0001b0 7a 18 01 be ad 9d 5a 3e 77 b3 06 be 0c a5 05 3f
       -0.12606993 0.21349211 -0.13154398 0.52204967
0001c0 54 8d 95 be cd a9 93 3d 15 a2 03 bf 62 cb 2c 3f
       -0.29209387 0.07210121 -0.5141919 0.6749784
0001d0 83 3d e7 3e 10 b5 01 be 21 a7 ba be 5d af 89 bd
       0.45164117 -0.12666726 -0.36455634 -0.06722901
0001e0 0d 74 7a be d8 e9 3d 3e 48 57 d7 3d 13 47 03 be
       -0.24458332 0.18546236 0.105146945 -0.12820081
0001f0 93 cb 06 be fa 4d 12 bf 51 6d 17 3f 3d 7c a0 be
       -0.13163595 -0.5715023 0.5915118 -0.31344786
000200 62 84 f4 3e 03 5d 21 3f f2 a2 31 3f 2d 89 51 3e
       0.4775725 0.6303255 0.6938926 0.20462485
000210 9d ab 93 3e 0e d4 43 be 8c 9e 77 3e c0 f8 0b be
       0.28841868 -0.19123861 0.24181575 -0.1366911
000220 52 7a 30 bd d3 76 b4 be 3d b7 c6 bd e7 74 76 be
       -0.043085404 -0.35246906 -0.09702919 -0.24068032
000230 90 70 a3 be 5c a3 90 3d bb aa 9c 3e 8b 67 ae 3d
       -0.31921816 0.07062408 0.30599007 0.08515843
000240 8f 78 9c be 89 ba 32 be 80 0d df be 0a 2a b0 3e
       -0.3056073 -0.1745397 -0.43564987 0.34407073
000250 2c dc 0f be be 0d 37 3d a2 7e 78 be 2a 37 89 3e
       -0.14048833 0.04469084 -0.24267057 0.267999
000260 26 ad cb be 48 dc d2 3d 04 8e 75 be d9 b0 00 3f
       -0.3978054 0.102959216 -0.23979956 0.5026985
000270 ab e3 c4 3b 88 ac a5 be 4e 0e d9 3e bd 01 d2 3e
       0.0060085854 -0.32358193 0.42393726 0.4101695
000280 b3 7a ca be 51 05 c2 bd 2d 2f 3b bf 3f 3e e8 3d
       -0.39546737 -0.0947367 -0.7311886 0.113399975
000290 9c 7a 74 be 1b 79 88 3d a2 97 60 bf fa d2 23 bf
       -0.23874897 0.06663724 -0.87731373 -0.639938
0002a0 97 f3 a5 be 0e cb 02 3e 33 4a dc bb a9 ac c4 3d
       -0.32412407 0.12772772 -0.0067227124 0.09603245
0002b0 1b 2f 71 3e fd 24 2a 3f 2c 9b 08 bf d3 55 98 3d
       0.23553126 0.6646269 -0.53361773 0.07438245
0002c0 b2 6b 3c be 31 56 ff be f2 c6 0f bf 2c 87 5d 3f
       -0.18400458 -0.49870446 -0.5616294 0.8653438
0002d0 60 cd e4 bd 35 18 17 bf 2e 51 72 bd 7d f5 e7 be
       -0.11171985 -0.5902131 -0.05915945 -0.4530448
0002e0 db 7f 0f bd 13 e6 43 be 7e f7 0e 3f 00 b9 db bc
       -0.03503404 -0.19130735 0.55846393 -0.026821613
0002f0 dc d8 07 3f 18 78 08 be 6a 66 3f 3d 3e d8 de be
       0.53065276 -0.13327062 0.04672853 -0.43524355
000300 fe ef b9 3e ec 93 3c 3f 0e 52 54 be d0 d1 2f 3e
       0.36315912 0.7366321 -0.20734426 0.17169881
000310 f3 cd 99 be 75 2c c9 3d 6a 00 d3 be 14 d4 1e be
       -0.3003994 0.09822933 -0.41211253 -0.15510589
000320 2f 4e c1 3e 5b b1 a9 3d 17 d1 75 3e 91 6d a0 be
       0.37754962 0.08285781 0.24005543 -0.31333593
000330 7c 7c fe 3d 29 f2 6d be 7b b5 c1 be 76 04 61 3e
       0.12426087 -0.23236908 -0.3783377 0.21974358
000340 6d 37 44 3d 7e 46 e0 3e c1 0b 9e bd 7e 02 c6 3e
       0.04790442 0.4380378 -0.07717086 0.38673776
000350 96 76 32 bf 80 24 a0 be 34 9d d4 3d 97 c5 26 be
       -0.697122 -0.31277847 0.103815466 -0.16286312
000360 55 0e de 3c b5 c8 a3 3e ac d3 d6 3c 3a c4 42 bc
       0.027106443 0.31989065 0.02622398 -0.011887604
000370 2d 7c a2 3e cc cb 4d be 99 38 4a bd e2 76 24 be
       0.31735364 -0.20097274 -0.049370382 -0.16060975
000380 8f bd ef 3e 1e 30 16 3c 07 f5 a5 bd 41 85 86 3e
       0.4682431 0.0091667455 -0.08103376 0.2627354
000390 62 32 36 be 95 f1 c0 bd 18 82 5c be 1e 8d d2 3c
       -0.17792657 -0.09421078 -0.21534002 0.025702056
0003a0 38 81 00 3f bd 46 86 3e 1f 8f ec be 3d a6 1f bf
       0.5019717 0.26225844 -0.46202943 -0.62363034
0003b0 12 45 37 be e2 08 32 3e 12 78 0d 3f 78 7b 35 3d
       -0.17897442 0.17386201 0.5526134 0.044307202
0003c0 94 c0 b6 3d ec c4 a3 3d 04 8d 91 be a9 d9 14 be
       0.0892345 0.07996544 -0.284279 -0.14536156
0003d0 a2 d0 81 be 1e e5 23 bf e4 7a 59 be a9 3b 62 bd
       -0.25354487 -0.6402148 -0.21238285 -0.055232678
0003e0 34 a9 42 bf c1 1f ef 3e 14 d1 29 3f 06 c4 d3 3d
       -0.76039433 0.46703914 0.6633465 0.10340123
0003f0 6b d2 a0 3e c1 ae 82 bd f6 97 74 3f b6 44 e3 be
       0.31410536 -0.06380988 0.95544374 -0.4438836

lstm.bias_ih_l1 f4 [128]
000000 06 28 c2 3e 76 46 94 bd b6 40 cc 3d 0f 74 31 3e
       0.3792116 -0.07240002 0.0997328 0.17329429
000010 52 ab 03 be 1b 22 3a 3f 83 34 1e 3e 07 35 b7 3e
       -0.12858322 0.7270829 0.15449719 0.35782644
000020 b9 79 26 be ef 1c 17 3e da 9c a5 3d db a3 99 3c
       -0.16257371 0.14757131 0.08086558 0.01875489
000030 51 44 90 3d 3e 73 d9 3e d0 57 a1 3e 53 e9 b1 3f
       0.0704428 0.42470735 0.31512308 1.389933
000040 7b 9c 90 3d 82 05 f9 bd 7f 0c 98 3e 80 79 b3 3d
       0.07061096 -0.12159254 0.29697034 0.08763409
000050 bf e0 52 3e ae 1d 30 3e ad 0a 08 39 9e 72 34 be
       0.20593546 0.17198822 0.00012973948 -0.17621848
000060 8d 59 72 3d 3c 63 84 3e 87 4d 03 3f 78 96 60 3e
       0.059167434 0.2585696 0.5129017 0.219324
000070 30 1c 2a 3d cd b3 09 bf 0e f6 56 be 20 6b 48 3e
       0.041530788 -0.5378998 -0.209923 0.19572115
000080 fc 30 f3 3d a6 2a f0 3e 3e 75 4f bf 24 ce ff be
       0.118745774 0.46907538 -0.8103827 -0.4996196
000090 81 74 14 be 88 69 c3 bd 26 4c 0a be 1f 26 c8 bd
       -0.14497568 -0.09541613 -0.13505611 -0.09772896
0000a0 a7 f0 e0 be 25 e6 f5 3d 66 d2 31 3e bb f9 20 3e
       -0.43933603 0.12006787 0.17365417 0.15720265
0000b0 45 fa b6 3e b4 4b 30 3c 8e d2 14 3a ba bd 51 3d
       0.35737815 0.0107602365 0.0005677127 0.051206328
0000c0 ea 2b 1e be de 9a 27 3b 32 e9 f8 bd 66 3e 3b be
       -0.1544644 0.0025574486 -0.121538535 -0.18285522
0000d0 98 57 51 3e f3 c3 8a 3e 9d f1 a6 bc dc de 3f be
       0.2044357 0.27102622 -0.020378882 -0.18737358
0000e0 50 90 58 3b de f8 51 bd a6 bf be 3e 18 36 07 be
       0.0033045001 -0.05126273 0.3725559 -0.13204229
0000f0 a4 33 bc 3e 18 ca 3d 3e 0c 9e 45 3e 5c 1a c4 bd
       0.3675815 0.18534124 0.19298571 -0.0957534
000100 12 46 94 bd 0e 06 53 3e 3a a2 ba 3d dd 2d cb bd
       -0.07239927 0.20607778 0.091129735 -0.09920857
000110 2a f8 81 3e 63 df 53 3e f4 3c 58 3e be 4c 2b be
       0.25384647 0.20690684 0.21117002 -0.16728494
000120 0a 9e c4 3d 2a 8f 83 3c bb 3f 3e be 78 d9 65 3d
       0.09600456 0.016059477 -0.18578999 0.056115597
000130 95 7e 06 be a6 d6 4e 3c 62 5f ab bd 67 44 8a be
       -0.13134225 0.012624418 -0.08367802 -0.27005312
000140 31 04 3d 3e 5e 8e 03 3e 99 c5 5d 3d 9e 62 64 be
       0.1845863 0.12847278 0.054143522 -0.22303244
000150 e6 b4 6c bc 51 8b 43 bd 30 45 9c 3d b6 b2 44 3e
       -0.014447426 -0.047740284 0.07630384 0.19208798
000160 c8 74 3f 3d 56 c3 5e 3e df 44 18 be 09 94 d0 bd
       0.04674223 0.21754202 -0.14870022 -0.101844855
000170 0e 51 87 be b1 2d db bd 70 07 73 3c 85 ee 8e bd
       -0.26429027 -0.10702074 0.014833316 -0.06979088
000180 ea 0f ba 3e df 94 9e 3e 06 11 82 3e 7b 68 08 3e
       0.36340266 0.30972955 0.25403613 0.13321106
000190 58 a6 37 3e 51 ec 48 3f d8 e0 1e bd 2a e8 8d 3e
       0.17934549 0.7848559 -0.038788646 0.2771619
0001a0 18 03 aa bd fb 71 09 3e b8 9f 40 3e 9d 2c 55 be
       -0.08301371 0.13422386 0.18810928 -0.208178
0001b0 12 d6 4a be 58 32 34 3e e4 c4 5d 3e 19 f6 73 3f
       -0.19808224 0.1759733 0.21657139 0.9529739
0001c0 9c 3d 19 3e 6d 67 22 3e 19 c9 09 3e 5b b6 9d 3e
       0.14964908 0.15859766 0.13455619 0.3080319
0001d0 7b 49 8e 3e 65 46 9a 3e d9 93 0d be a4 26 85 be
       0.27790436 0.30131832 -0.1382593 -0.26006043
0001e0 1e 06 1f bb 70 99 ba 3e c7 66 eb 3e ea 6d 02 be
       -0.002426512 0.3644519 0.4597685 -0.12737241
0001f0 b9 f1 cf be dc 95 90 bd d8 a3 96 3e 8b 90 80 3d
       -0.40614107 -0.070598334 0.29421878 0.062775694

lstm.bias_hh_l1 f4 [128]
000000 ac 1c 71 3e db bd b9 bc 66 2b ab 3b c8 d8 ac 3e
       0.23546094 -0.022673538 0.0052236794 0.3375914
000010 88 ea 8a bc d0 89 0f 3f 40 12 f3 3d b6 50 98 3e
       -0.016957536 0.5606966 0.11868715 0.29749078
000020 64 39 13 3d a2 f0 c7 3d f4 29 77 bd ab aa 08 be
       0.035943404 0.09762694 -0.060342744 -0.13346355
000030 2b 1c ac bd c3 3c 80 3e c5 8c 27 3e ad 4c 95 3f
       -0.0840381 0.25046358 0.16362293 1.1664025
000040 f4 12 91 3e 17 5f 02 be 92 88 87 3e 8a f8 1b be
       0.28334773 -0.12731586 0.26471382 -0.15231529
000050 bd 06 3b 3e f3 21 ec 3d f9 7f bb bd 64 da ef bc
       0.18264289 0.11529913 -0.09155268 -0.029278941
000060 ff 69 83 3d f6 ed b6 3e 81 3e d0 3e d4 41 a5 3e
       0.064167015 0.35728425 0.40672687 0.32276785
000070 fb d6 e3 3d d9 ea 20 bf cc 5d 2d be cc 4e 96 bd
       0.11124989 -0.6285835 -0.16930312 -0.07339248
000080 f2 52 84 3e 07 2c d2 3e 19 5e 71 bf aa d7 c6 be
       0.25844532 0.41049215 -0.94284207 -0.38836414
000090 de 2c 0b be e3 42 0b 3e f1 d1 eb be e2 bb 71 be
       -0.13591334 0.13599734 -0.4605861 -0.23606828
0000a0 01 7c 0d bf 89 2d 00 3e 8e 94 cc bc a6 15 2e 3d
       -0.5526734 0.1251737 -0.02497318 0.042501114
0000b0 a9 ef 21 3e d2 09 be 3c e5 58 15 3e 11 fd 08 3e
       0.1581408 0.023198042 0.14584692 0.13377787
0000c0 91 11 a3 bd ae 7e b5 bd 29 c8 00 3e ec 8b 09 be
       -0.07962335 -0.08862053 0.12576355 -0.13432282
0000d0 e4 19 2e 3c fd 8b db 3e ad cc f0 bc b7 79 19 be
       0.01062629 0.4288024 -0.029394472 -0.14987837
0000e0 c3 9c a1 3d 22 47 5c be 40 13 08 3e a1 80 90 3d
       0.07891228 -0.2151151 0.13288593 0.07055784
0000f0 3a d8 90 3e ec 60 46 3e 0d 62 2e 3e d3 d8 1a be
       0.28289968 0.1937291 0.17029591 -0.15121774
000100 ef 4d 33 3d c4 bc 78 3e 10 61 d7 3d 40 41 ce bd
       0.043775495 0.24290758 0.1051656 -0.10071039
000110 4d 04 93 3d b0 74 9b 3e ad e8 07 3e 7e b7 cb bc
       0.07178555 0.30362463 0.13272353 -0.02486777
000120 2f 3c a9 3e 93 c3 92 be 05 bb f7 bd 60 05 b9 3e
       0.3305373 -0.28664836 -0.12096218 0.36136913
000130 04 ba 3b be 91 39 9c bd e3 32 a6 bd b6 37 33 be
       -0.18332678 -0.076281674 -0.081151746 -0.17501721
000140 25 b5 6e 3e 7c 7a 37 bd 63 93 03 be 59 73 9e be
       0.23311289 -0.044794545 -0.12849192 -0.30947378
000150 5a 84 0c be d6 c8 ff bc 1c e3 9a bd c8 c1 3b 3e
       -0.13722363 -0.031223696 -0.07562849 0.1833564
000160 37 46 ec 3d 2e 21 6c 3e 69 20 10 be 49 6f 0b be
       0.1153683 0.23059532 -0.14074863 -0.1361667
000170 3c 88 8b be 98 3a 6a be 8f cc 58 be 7d dd 3e 3d
       -0.27252376 -0.22873914 -0.21171783 0.046597946
000180 8c e7 45 3e 21 06 ed 3d 1a 1e 99 3e 70 66 94 3d
       0.1932661 0.115734346 0.29905778 0.07246101
000190 c7 3e 70 3e dc 46 86 3f 68 87 a5 3c 3c c4 9a 3e
       0.23461448 1.0490375 0.020206168 0.3022784
0001a0 42 b5 41 be 24 f1 c8 3d af 28 dd 3c af a8 26 be
       -0.189168 0.09811619 0.026996939 -0.16275285
0001b0 bf 82 05 3e e5 33 3e 3e 78 20 ae 3e 30 da 60 3f
       0.13038157 0.18574484 0.34009147 0.8783293
0001c0 30 53 21 3e 19 fe 24 bd 80 b3 5e 3d a9 1d b8 3e
       0.1575439 -0.04028139 0.054370403 0.3596013
0001d0 93 e3 05 3f 41 3c 14 3e 45 9e 91 bd 95 cb 4b be
       0.52300376 0.1447611 -0.07110266 -0.19901879
0001e0 39 bb 04 be 36 1a d0 3e a9 c8 91 3e 09 9b ae 3d
       -0.12962045 0.40644997 0.28473404 0.08525664
0001f0 b4 29 5f be 20 d8 d4 3d 59 52 bb 3e 5a 7c 3d 3d
       -0.21793252 0.10392785 0.36586264 0.04626117

lstm.weight_ih_l2 f4 [128, 32]
000000 c0 2e 3a 3f 83 60 b3 3e a6 55 87 3d 5f 66 22 3e
       0.72727585 0.3503457 0.06608133 0.15859364
000010 90 e5 0e 3e 38 08 b8 3e 48 db 40 3f 5b bd 75 3c
       0.13954759 0.3594377 0.75334597 0.014998759
000020 6d ce 86 3e 51 24 52 3e 85 dd 68 be 28 34 d6 3e
       0.26329365 0.20521666 -0.22740753 0.41836667
000030 06 79 88 be 2d 68 c0 3e 5b ab fd bd 13 2d ed 3d
       -0.26654834 0.3757948 -0.12386199 0.11580863
000040 99 5f 2d bf 21 ca ee be b1 7c d9 3c 0c 64 b1 3e
       -0.67723995 -0.46638587 0.026548715 0.34646642
000050 ad a6 26 3e 38 78 15 bf f6 ea e0 3e 03 b7 12 be
       0.1627452 -0.58386564 0.4392926 -0.14327626
000060 5e 08 04 3f 69 3f b6 3e 67 89 82 be 5a 29 8f be
       0.5157527 0.35595253 -0.25495455 -0.27961236
000070 92 06 e1 3e 8a 22 e5 be 2f 55 3b bd dd 16 19 3d
       0.43950325 -0.44752914 -0.045735534 0.03737532
000080 35 a9 46 3e a5 2e 45 3d 12 51 27 3e 9a 8a 66 bf
       0.19400485 0.048140187 0.1633952 -0.9005524
000090 17 54 35 be a1 f2 ff be 2d 49 31 3f 0f ee 82 be
       -0.17707859 -0.499898 0.6925228 -0.2557225
0000a0 68 81 29 3e 9b 08 09 ba a4 e0 bf 3e b5 fe 1c 3f
       0.16553271 -0.00052274176 0.37476075 0.6132615
0000b0 3a f4 51 be cc df a2 3e 95 df d5 be 25 b5 ae be
       -0.20503321 0.31811368 -0.41772142 -0.34122577
0000c0 a9 56 02 3e 38 20 4b be 7b 35 f6 be 56 f3 01 3e
       0.1272837 -0.19836509 -0.48087677 0.12690482
0000d0 ce 94 fa 3c da e5 de bc 69 ab 87 be d9 58 33 bf
       0.030588534 -0.027209211 -0.26497963 -0.70057446
0000e0 e4 14 2e bf fb 54 34 3f 76 ad aa bd 16 31 a3 be
       -0.68000627 0.7044217 -0.08333866 -0.31873387
0000f0 ec f4 c4 3d 67 22 42 bf 4e a8 9e be 13 46 82 be
       0.09617028 -0.75833744 -0.3098778 -0.25444087
000100 bb 5f 85 be 4e 74 8c be 55 f6 91 3d 01 7f 43 bf
       -0.260496 -0.27432483 0.07127062 -0.7636567
000110 57 46 2d bf 58 58 59 3f dd 47 4b 3e b6 cf 2b be
       -0.67685455 0.84900427 0.19851632 -0.16778454
000120 68 31 ec be c0 a7 d5 be 83 b8 87 3e 28 05 b6 3e
       -0.46131444 -0.41729546 0.2650796 0.3555081
000130 e6 64 96 bd 11 cc d1 3e af 26 9e be 74 d0 32 3e
       -0.073434636 0.40976003 -0.30888888 0.17462331
000140 84 68 1c bf 9c 1d f3 be 3d 05 8f bc 34 de c0 bd
       -0.6109698 -0.47483528 -0.017458552 -0.09417382
000150 0b 31 15 bf 11 88 81 be 1c e7 7c be 6d 34 fc 3e
       -0.5827796 -0.25299123 -0.24697536 0.49258748
000160 28 d7 e2 3e 04 df 7f 3e b3 19 07 bf e3 0d 15 bf
       0.44304776 0.24987417 -0.5277359 -0.58224314
000170 e8 a7 3a 3c a7 2b a2 be bf ed dd be b9 18 ef bd
       0.011392571 -0.3167393 -0.43345448 -0.11674637
000180 52 28 87 3e c8 59 8d bd c0 a7 44 3f 7d 1e 3e bf
       0.2639795 -0.0690189 0.76818466 -0.7426527
000190 09 5f d2 be 46 75 0c bf e8 34 c2 3d 83 be 7b be
       -0.4108813 -0.54866445 0.09482747 -0.24584393
0001a0 bf 95 11 bf b0 eb 1e bf 59 86 cc 3e 85 a2 53 3f
       -0.5686912 -0.6207838 0.3994625 0.8266986
0001b0 2a 0c cb 3e 18 d4 32 3f 8d bc 2b 3d b7 7a aa 3e
       0.39657718 0.6985488 0.041927863 0.3329675
0001c0 ac d5 9c 3d e2 07 dc be 9d bb 07 be 8c ce 3f 3d
       0.07657942 -0.42974764 -0.13255163 0.046827838
0001d0 13 49 9a 3e 9f 81 0f be 3d 45 97 bf c9 a3 ce be
       0.30133876 -0.1401429 -1.1818005 -0.40359333
0001e0 0c 72 9f bd 1a 85 ce be 29 34 42 be be f7 81 be
       -0.077854246 -0.40335923 -0.1896521 -0.25384325
0001f0 23 00 74 be 66 00 2b bf bd 72 93 be 57 06 90 be
       -0.23828177 -0.6679748 -0.28798476 -0.28129837
000200 6a 5e 75 3e fe 9a fa 3d f5 d9 82 3e 73 c8 3a 3e
       0.23961797 0.12236594 0.25556913 0.18240528
000210 72 f9 c3 3e fd 47 1d be 10 80 24 3e e8 21 9f bf
       0.3827625 -0.15359493 0.16064477 -1.2432222
000220 e2 22 c8 3e 09 64 42 be 2a 58 50 bd 93 14 d5 bd
       0.39089113 -0.18983473 -0.05086533 -0.10404315
000230 6b 74 1d 3e 35 64 23 3e ec fb ff 3d 5f b1 fd bd
       0.15376441 0.15956195 0.12499222 -0.123873465
000240 1d 02 72 3d 71 42 cc bd 3f 4c 2b be 10 dd 66 3f
       0.059084047 -0.0997361 -0.16728304 0.90181065
000250 15 3d 0c bf 25 1c b8 bd 95 65 44 be 8e 1e ce 3e
       -0.54780704 -0.08989743 -0.19179375 0.40257686
000260 d5 9c a7 3e 5e b0 e2 3d 47 c7 02 3e 0b ea da be
       0.3273684 0.110687956 0.12771331 -0.42756686
000270 92 aa 51 bd 4d 1f 82 bf 23 65 ac 3e 98 0e a0 3c
       -0.05118806 -1.0165802 0.3367091 0.019538209
000280 da c7 b3 3e 95 1f 9c 3e 66 3e 24 3f 23 a4 ad be
       0.35113412 0.30492845 0.6415771 -0.3391429
000290 04 9d 26 3f 90 de 51 be 0b d6 19 3f fa d7 fc 3e
       0.65083337 -0.20495057 0.6009223 0.49383527
0002a0 fc f5 0d 3f a2 35 36 be f5 07 37 be 1f b8 5d 3f
       0.5545347 -0.17793897 -0.17874129 0.8660907
0002b0 9a fe d1 3e 8c b9 be be 82 18 03 3f 06 2d ed 3e
       0.41014558 -0.37250936 0.5120927 0.46323413
0002c0 3d 2b 78 bf 30 da c3 bf 01 f3 c0 3d b3 ab bc 3c
       -0.96940976 -1.530096 0.09421349 0.023031091
0002d0 4f bb ae bb b0 01 a6 bd 15 9d 26 be 1c 36 97 3f
       -0.0053323875 -0.081057906 -0.1627086 1.1813388
0002e0 d6 ce 0b 3f 1d 79 9b 3d d7 48 ff 3d 20 f8 96 be
       0.5461248 0.0759146 0.12465065 -0.2948618
0002f0 a1 47 59 be b3 e1 8f be 41 4b 65 3e cd 4a ce 3e
       -0.2121873 -0.28101882 0.22391988 0.40291443
000300 2b c9 e0 3d 46 09 4f bf 9a b0 d2 3d 39 c3 de bd
       0.1097587 -0.80873525 0.1028759 -0.108770795
000310 d3 66 01 bf 31 2d 81 3d 4e 40 f6 3e c1 a3 9d bb
       -0.5054752 0.06307448 0.48095936 -0.0048107808
000320 7a f9 78 be c4 f6 ac be c6 83 c0 3d 84 86 a8 3c
       -0.24313918 -0.33782017 0.09400134 0.020571955
000330 d5 d2 c8 be c4 bc d1 be 53 08 4f 3e f3 7d f4 bd
       -0.39223352 -0.4096433 0.20218019 -0.119380854
000340 ab 5a 09 be c0 94 51 be ea 22 a8 3e 7c af 17 3d
       -0.13413493 -0.204669 0.32839137 0.03703259
000350 46 79 da be db f0 86 3e ad 04 05 bc e0 f4 e8 3d
       -0.4267065 0.26355633 -0.008118791 0.11374831
000360 4c e6 4e 3d 2a 1e 89 3e 65 29 b7 bd 53 3c d8 3d
       0.050512597 0.26780826 -0.08943442 0.10558381
000370 a3 97 62 bc 1c e8 93 3e ff f9 8b 3e 18 a6 e8 be
       -0.013830098 0.28888023 0.2733917 -0.4543922
000380 19 63 3b bf 32 16 e8 be 63 da e7 3e d7 6c 8c bf
       -0.73198086 -0.45329434 0.45283803 -1.0970715
000390 86 93 94 be 2d 21 a0 3e d3 76 11 3f bd 38 25 3f
       -0.290188 0.3127531 0.56821936 0.645397
0003a0 72 68 9a 3e b3 ff 26 3f 83 a0 b3 3e 62 3e 1c 3f
       0.3015781 0.65233916 0.35083398 0.6103269
0003b0 f4 07 32 be 03 f3 b9 3f 74 6d 0f be 6d 32 f8 bd
       -0.17385846 1.4527286 -0.14006597 -0.12118993
0003c0 99 b4 6f be d7 5b 34 bf fe 8c 1c 3c e5 77 cc be
       -0.23408736 -0.70452636 0.0095550995 -0.39935222
0003d0 9d a0 83 3f 94 ee 49 bd 49 78 30 bf a9 b9 c5 be
       1.028339 -0.04929979 -0.6893354 -0.3861821
0003e0 1f e2 a1 3e e3 40 c7 3e 36 ad ca 3d 34 ff 5f bf
       0.3161783 0.38916692 0.098963186 -0.87498784
0003f0 2b 1c 08 3f 0b 7c b9 be 85 b9 cc bd 2a ca e3 bd
       0.5316798 -0.3622745 -0.099963225 -0.11122544
