omni/sdu/ai/examples/LSTM/model/modelv6.pth (torch, 9315 bytes, 6 tensors)

lstm.weight_ih_l0 f4 [64, 12]
0	0xbe892f37	-0.26793835
1	0xbedfc575	-0.43705335
2	0xbe8afe4d	-0.2714714
3	0xbc032ed0	-0.008006766
4	0xbe81f1b9	-0.25379732
5	0x3ef76143	0.48316392
6	0x3e091b9a	0.13389435
7	0x3dcc6add	0.0998132
8	0x3ec04cdb	0.37558636
9	0x3e2b8ac0	0.16752148
10	0x3ed401b4	0.4140755
11	0x3e8d8f6b	0.27648482
12	0xbb96ade8	-0.004598368
13	0x3eadfd77	0.3398244
14	0xbdbdd2b9	-0.09268708
15	0xbeac24e3	-0.33621892
16	0xbddda7ec	-0.10823044
17	0x3e32ceec	0.17461747
18	0xbebd4bcc	-0.3697189
19	0xbd048f86	-0.032363437
20	0xbd860716	-0.0654432
21	0x3ec7d7d1	0.39031842
22	0x3e0d3ee8	0.13793528
23	0x3e8b7060	0.27234173
24	0x3eeafc94	0.45895827
25	0x3ea7f097	0.32800743
26	0x3e12c506	0.14332971
27	0xbe56775c	-0.2094397
28	0x3e2656b7	0.16244017
29	0xbefffed3	-0.49999103
30	0x3dfd2115	0.123598255
31	0xbea8fc8d	-0.3300518
32	0x3e97d874	0.29657328
33	0xbecd17fa	-0.40057355
34	0xbda94f1a	-0.082670406
35	0x3e097c41	0.13426305
36	0x3d894d0c	0.06704149
37	0x3ee4f5f2	0.4471889
38	0xbe67152d	-0.22566672
39	0xbdbbba14	-0.09166351
40	0xbc8985c5	-0.01678742
41	0x3e472589	0.19447912
42	0xbef87cac	-0.48532617
43	0x3da4a4b4	0.08039227
44	0x3dd5c709	0.104383536
45	0x3e43d098	0.19122541
46	0x3e5d1f2c	0.21593922
47	0xbea04e77	-0.31309864
48	0x3d911682	0.07084371
49	0x3e0a83b8	0.13526809
50	0xbd9494b5	-0.07254926
51	0x3d8b7da7	0.06811076
52	0x3dedb92f	0.116075866
53	0xbe86601c	-0.262452
54	0xbe8a30c5	-0.26990333
55	0x3d9f4549	0.07776887
56	0xbd0a1eb1	-0.033720676
57	0xbe5aca51	-0.2136624
58	0xbe85fc88	-0.2616923
59	0x3ee23696	0.4418227
60	0xbec71e42	-0.38890272
61	0x3caa030c	0.020753406
62	0x3ed7835e	0.42092413
63	0x3b9c2518	0.004765164
64	0xbe0fbaeb	-0.14036147
65	0x3f15ff78	0.5859294
66	0x3ea01871	0.31268647
67	0x3db9cfea	0.090728596
68	0xbea55a67	-0.32295534
69	0xbd77d093	-0.060501646
70	0x3e6945cb	0.2278053
71	0xbe803d95	-0.25046983
72	0xbe1b836a	-0.15186849
73	0xbce2b4ae	-0.027674045
74	0xbcc7bda6	-0.024382424
75	0x3cf3e73b	0.029773345
76	0xbe0a8f5b	-0.13531248
77	0x3ed04600	0.40678406
78	0xbdff37c2	-0.12461807
79	0xbc211743	-0.009832206
80	0x3c4aa8c8	0.012369342
81	0x3f0ec053	0.55762213
82	0xbec58f57	-0.38585922
83	0xbda79fc2	-0.08184768
84	0x3ebef221	0.37294105
85	0xbead3df0	-0.33836317
86	0x3e018368	0.12647784
87	0x3ecc2ba1	0.39877036
88	0xbe07ef09	-0.13274778
89	0xbd2089f6	-0.03919407
90	0x3ec40ddc	0.38291824
91	0x3f0219de	0.5082072
92	0x3e96391f	0.29340455
93	0x3caeb609	0.021327036
94	0x3d18e278	0.037325352
95	0x3ed8871f	0.4229059
96	0x3d94f806	0.07273869
97	0xbe066653	-0.13124971
98	0xbe9fb258	-0.31190753
99	0xbdeeef63	-0.11666753
100	0xbdf0cd3d	-0.11757896
101	0x3ea03add	0.3129491
102	0xbe95c29c	-0.29250038
103	0x3e884a0e	0.26619
104	0xbeaff598	-0.3436706
105	0x3bbf9471	0.005846553
106	0x3f314cdb	0.692579
107	0xbe1d085a	-0.15335217
108	0x3bdb1752	0.0066861296
109	0x3dbb9380	0.09158993
110	0x3ed5e7c9	0.417784
111	0x3d33c082	0.04388476
112	0x3e4124c5	0.18861683
113	0x3e8c50e1	0.27405456
114	0xbe41226d	-0.18860789
115	0xbdb754de	-0.08951734
116	0x3f706825	0.9390891
117	0x3e759b7d	0.23985095
118	0xbe13909c	-0.14410633
119	0x3e5e3d75	0.21703131
120	0x3f086217	0.53274673
121	0xbe72be57	-0.23705421
122	0xbd558f10	-0.05213839
123	0x3d9f1f53	0.077696465
124	0x3f1ab3bc	0.604305
125	0xbe3e5aaf	-0.1858928
126	0xbc1606b9	-0.009156876
127	0xbe839f7a	-0.25707608
128	0x3d399da7	0.045316365
129	0x3f4031f4	0.7507622
130	0x3db0ab4e	0.08626424
131	0xbf81bbfa	-1.0135491
132	0x3e576e5a	0.2103819
133	0xbea8d4c0	-0.32974815
134	0x3d07e0c3	0.033173334
135	0xbbdbd4e0	-0.0067087263
136	0x3de412c0	0.11136389
137	0xbed378eb	-0.4130319
138	0xbe8ae908	-0.27130914
139	0x3cb3b494	0.021936692
140	0x3d7c39e5	0.06157865
141	0x3d3aca48	0.045603067
142	0xbe22b803	-0.15890507
143	0xbe029b9f	-0.12754677
144	0xbd303b59	-0.04302535
145	0x3d1b39d8	0.03789696
146	0xbccdf8b3	-0.025143003
147	0xbdf54217	-0.11975496
148	0xbd16e5a6	-0.036840104
149	0x3e01bc2a	0.12669435
150	0x3d9aadc8	0.075526774
151	0x3e504908	0.20340359
152	0x3e1373a5	0.14399584
153	0x3d9058a3	0.07048156
154	0x3ec6b400	0.38809204
155	0x3e6efc98	0.23338544
156	0x3f065946	0.5247997
157	0xbf01e82b	-0.50744885
158	0x3e9f989e	0.31171125
159	0x3e8bf808	0.2733767
160	0x3ec81337	0.3907716
161	0x3d47db82	0.048793323
162	0x3fa11a96	1.2586238
163	0x3eb20e6e	0.34776634
164	0xbeb4480d	-0.3521122
165	0x3e896e4b	0.2684196
166	0xbe98d474	-0.2984959
167	0xbf63a168	-0.8891816
168	0xbe0bb2ac	-0.13642377
169	0xbd071a9f	-0.032984372
170	0x3ee8937c	0.45425022
171	0xbc7ed012	-0.0155525375
172	0xbc1af5d7	-0.009458027
173	0xbed79e2d	-0.42112866
174	0x3f0dc86c	0.55383945
175	0x3e5dbb1f	0.21653412
176	0x3eb77a66	0.3583557
177	0x3dc96ada	0.098348334
178	0xbf040560	-0.515707
179	0xbe624368	-0.22096026
180	0xbec87d29	-0.3915799
181	0x3eb1ea60	0.34749126
182	0x3c105867	0.008810139
183	0xbea4c012	-0.32177788
184	0xbdc9f6f7	-0.09861558
185	0x3e0311e1	0.12799789
186	0xbddfc3ca	-0.10926016
187	0xbea0031e	-0.31252378
188	0xbbb0804a	-0.005386387
189	0x3dd55c85	0.10418037
190	0x3f653d50	0.8954668
191	0x3f356137	0.70851463
192	0x3edd241e	0.43191618
193	0xbf01493c	-0.5050237
194	0xbf40471b	-0.751085
195	0xbbe73f66	-0.007057118
196	0x3ea9e1bd	0.33180037
197	0x3e61b67e	0.22042271
198	0x3d049996	0.032373033
199	0x3e24fd34	0.16112214
200	0xbe822867	-0.2542145
201	0xbe1555a1	-0.14583446
202	0x3cc0661e	0.023486193
203	0xbe8f97c3	-0.28045473
204	0xbe1d71ca	-0.15375438
205	0x3e48da11	0.19614436
206	0x3d90d0c8	0.07071072
207	0x3e86bd96	0.26316518
208	0x3e645f41	0.22301961
209	0xbe621fb5	-0.22082408
210	0xbd8bef2a	-0.06832726
211	0x3db3a57c	0.08771798
212	0x3e93663e	0.28788942
213	0x3e1e1601	0.15438081
214	0xb6358c2f	-2.70527e-06
215	0x3dffda67	0.12492829
216	0x3ea0c421	0.31399634
217	0x3e408514	0.18800765
218	0xbec95bf1	-0.39327958
219	0xbe2ac46d	-0.16676493
220	0x3de8aba2	0.11360861
221	0xbebfe02e	-0.37475723
222	0xbeddfc40	-0.43356514
223	0x3d6aa50c	0.057286307
224	0x3b87c916	0.0041438444
225	0xbee1fbca	-0.44137412
226	0xbdba4fac	-0.090972275
227	0x3e99785f	0.29974648
228	0xbefedeac	-0.4977926
229	0x3e592c05	0.21208198
230	0x3db43558	0.08799237
231	0xbd2b7bea	-0.04186622
232	0xbeb7f2bd	-0.35927382
233	0x3dac342f	0.08408391
234	0xbeab3ba6	-0.33443946
235	0xbeafb2d6	-0.34316128
236	0xbde1e660	-0.11030269
237	0x3d12c60c	0.035833403
238	0xbe6b0ef3	-0.22954921
239	0x3e1e9f4f	0.15490459
240	0x3e8eed1a	0.2791527
241	0xbe82b866	-0.2553131
242	0xbf0add0c	-0.5424354
243	0x3d9e6e42	0.07735874
244	0x3e54ed08	0.20793545
245	0xbeaa130d	-0.3321766
246	0x3ea7b6bb	0.327566
247	0xbe89851c	-0.26859367
248	0xbf881a2d	-1.0632988
249	0xbe4d3858	-0.20041025
250	0xbf0d7e3c	-0.55270743
251	0x3dd0c945	0.10194639
252	0xbcd5fb4b	-0.026120802
253	0xbe720885	-0.23636062
254	0x3d488d53	0.048962902
255	0xbd567cf1	-0.052365247

lstm.weight_hh_l0 f4 [64, 16]
0	0x3e676c30	0.22599864
1	0xbdf78954	-0.1208674
2	0x3caeea43	0.021351939
3	0x3e63e478	0.22255123
4	0xbf5114b8	-0.8167224
5	0xbed9781b	-0.42474446
6	0x3eb498d4	0.3527285
7	0x3e55d798	0.20883024
8	0xbdb85d30	-0.09002149
9	0xbf1a3fc3	-0.6025354
10	0x3e359163	0.17731242
11	0xbe83f46c	-0.25772417
12	0xbe50968a	-0.20369926
13	0xbcf65806	-0.03007127
14	0x3eb166e3	0.3464881
15	0x3e4fe2d2	0.20301369
16	0x3e9c1f8b	0.30492815
17	0xbd93c37f	-0.07215022
18	0xbe0926b0	-0.13393664
19	0x3efee8a1	0.49786857
20	0xbe87e7f9	-0.2654417
21	0xbea035fc	-0.31291187
22	0xbe53c81e	-0.20681807
23	0xbddb637e	-0.10712336
24	0xbe9b9aa9	-0.30391434
25	0x3f0c30c8	0.54761934
26	0xbd14cd65	-0.036328692
27	0xbe2bd516	-0.16780505
28	0x3f09cf60	0.53832054
29	0xbc1ad5f2	-0.009450423
30	0xbea121e9	-0.31471184
31	0xbebe19ba	-0.37129003
32	0x3e78bd47	0.24290954
33	0x3c6807a0	0.014161974
34	0xbe8f56c1	-0.27995875
35	0xbd189651	-0.037252728
36	0x3ef10a97	0.47078392
37	0x3e66c1f9	0.22534932
38	0xbe04129c	-0.12897724
39	0xbe923a99	-0.2856033
40	0x3d123c7c	0.035702214
41	0x3ef47079	0.4774206
42	0x3dff5b62	0.12468602
43	0xbd3c747d	-0.04600953
44	0xbe900e68	-0.2813599
45	0xbf134c2d	-0.5753811
46	0x3e51e7f6	0.20498642
47	0xbe204c52	-0.15654114
48	0x3ea93f72	0.33056217
49	0xbeb91f44	-0.36156666
50	0xbe3a1874	-0.1817339
51	0x3e2dd477	0.1697558
52	0xbf887d1b	-1.0663179
53	0xbeaf797e	-0.3427238
54	0xbf2a491a	-0.66517794
55	0x3e99eedd	0.3006505
56	0xbdbf2291	-0.09332765
57	0x3dc678b4	0.09690991
58	0xbdda7be7	-0.10668164
59	0xbeda8369	-0.42678383
60	0x3e414528	0.18874037
61	0x3d82eb2b	0.06392511
62	0xbe1029a1	-0.1407838
63	0x3d45b2f3	0.048266362
64	0xbe8187f6	-0.25299042
65	0x3eaea9e6	0.34113997
66	0x3ee25f24	0.44213212
67	0xbe6728d6	-0.22574171
68	0xbe837050	-0.25671625
69	0xbf4a2497	-0.7896208
70	0x3e2f247e	0.17103764
71	0x3f382099	0.7192474
72	0xbe009c1f	-0.12559555
73	0xbd314007	-0.04327395
74	0xbd3c2bb1	-0.045940105
75	0x3cab9fea	0.020950276
76	0xbf05a949	-0.52211434
77	0x3e66e0ce	0.22546694
78	0x3ea45c61	0.3210173
79	0x3edbadca	0.42906028
80	0x3e2bbb46	0.16770658
81	0x3e304b4d	0.17216225
82	0x3ef3e590	0.4763608
83	0x3ef6c1dd	0.4819478
84	0xbea9e0fc	-0.33179462
85	0x3e2a35fd	0.16622157
86	0x3e898915	0.26862398
87	0x3f293534	0.66096807
88	0xbdf28bcf	-0.118430726
89	0x3e1f662a	0.15566316
90	0x3eb9590b	0.36200747
91	0xbd38b7b5	-0.04509707
92	0x3d934a86	0.071919486
93	0xbe8b0d09	-0.27158383
94	0x3efc8348	0.4931891
95	0xbd489506	-0.048970245
96	0xbd85f0bb	-0.06540056
97	0xbec8cc29	-0.39218262
98	0x3d9c2e95	0.07626072
99	0x3e638d66	0.22221908
100	0x3db52274	0.08844462
101	0x3ed36d54	0.41294348
102	0xbe69b188	-0.22821629
103	0x3ec84058	0.3911159
104	0xbf0c8b32	-0.54899895
105	0x3e066378	0.13123882
106	0xbe68bf96	-0.22729334
107	0xbebc5027	-0.367799
108	0x3f21bfb5	0.63183147
109	0xbeadc16c	-0.33936632
110	0xbd7eaf46	-0.062178873
111	0xbd96f205	-0.0737038
112	0x3e922e40	0.2855091
113	0x3e072a7f	0.13199805
114	0x3ea028ad	0.31281033
115	0xbdc86020	-0.097839594
116	0x3e28d87e	0.16488835
117	0x3e24675b	0.16055052
118	0xbc2fef74	-0.010738242
119	0x3e5943d5	0.21217282
120	0xbdf41518	-0.11918086
121	0xbd2eb14e	-0.04264956
122	0x3f3795ed	0.71713144
123	0xbe30ea97	-0.17276989
124	0x3cb8dd3c	0.02256643
125	0xbdb660d8	-0.0890519
126	0x3e95f10e	0.29285473
127	0xbd32c3fc	-0.043643937
128	0xbe874303	-0.26418313
129	0xbea7fa7b	-0.3280829
130	0x3e24e155	0.16101582
131	0x3f4f224c	0.8091171
132	0xbeb4de65	-0.35325924
133	0xbe29955e	-0.16560885
134	0xbdbf186b	-0.09330829
135	0x3ea7ef56	0.32799786
136	0xbea8a35e	-0.3293714
137	0x3e3a11fe	0.18170926
138	0xbf1a9292	-0.603799
139	0x3e9e3423	0.30899152
140	0x3a94ace3	0.0011343028
141	0x3eb7a2e3	0.3586646
142	0x3db48f21	0.08816362
143	0xbdb8ef3e	-0.09030007
144	0x3e0eb8fb	0.13937752
145	0xbddfb657	-0.109234504
146	0xbd935c47	-0.07195335
147	0xbe2d220e	-0.16907522
148	0xbd315805	-0.043296833
149	0xbe2f2892	-0.1710532
150	0xbed15f25	-0.40892902
151	0xbe943adc	-0.28951156
152	0x3e338e56	0.17534766
153	0x3ee17012	0.44030815
154	0x3c8c012c	0.017090403
155	0xbe1a95d1	-0.15096213
156	0xbe03c94b	-0.12869756
157	0x3c6a8f22	0.014316352
158	0xbe148a19	-0.14505805
159	0xbf33bf97	-0.7021422
160	0x3dd98eac	0.106229156
161	0xbbaeccba	-0.005334464
162	0xbbc5db78	-0.0060381256
163	0x3e738468	0.23780978
164	0xbe8a2c15	-0.26986757
165	0xbe85d42a	-0.2613843
166	0xbde08e9b	-0.109647
167	0xbe9fa718	-0.3118217
168	0xbeead745	-0.45867363
169	0xbe5893d6	-0.21150145
170	0xbe5c66ca	-0.21523586
171	0xbe7a44b1	-0.24440266
172	0xbb8e0ae0	-0.0043347925
173	0x3ec53450	0.38516474
174	0x3e764658	0.24050272
175	0xbe2dbb71	-0.16966034
176	0x3eab12fb	0.33412918
177	0xbe2b4614	-0.16725951
178	0x3e631014	0.22174102
179	0xbe3b028b	-0.18262689
180	0x3bfda0a2	0.007740096
181	0x3d8842f6	0.06653397
182	0x3d4749a6	0.04865422
183	0x3e5cb325	0.21552713
184	0x3d9f5c7c	0.07781312
185	0xbdd4777b	-0.103743516
186	0x3cfa6583	0.030565983
187	0xbe9f00c5	-0.31055275
188	0xbbf8d1db	-0.007593376
189	0xbdf39bbf	-0.118949406
190	0x3e8fe6e2	0.28105837
191	0xbcc5b89c	-0.02413588
192	0xbdc042a2	-0.09387709
193	0xbe1d11c4	-0.15338808
194	0xbe2b63e8	-0.1673733
195	0x3e9874aa	0.29776508
196	0x3e669451	0.22517516
197	0x3d900d59	0.07033796
198	0x3de20b99	0.11037368
199	0xbe487214	-0.19574767
200	0xbe8a12b6	-0.269674
201	0x3e4198e3	0.18905978
202	0xbe289f39	-0.16466989
203	0x3dbb4162	0.0914333
204	0xbd9ec94b	-0.07753237
205	0xbe829779	-0.2550619
206	0xbe3e54ce	-0.18587038
207	0xbe39ad2e	-0.18132469
208	0x3e05fc88	0.13084614
209	0x3db3c6bb	0.08778139
210	0xbd6b8dc1	-0.057508234
211	0xbec6a5e3	-0.38798437
212	0xbdc2a7f2	-0.09504689
213	0xbd82d7ab	-0.06388792
214	0x3e2a35cf	0.16622089
215	0x3ee1b992	0.4408689
216	0xbd494dec	-0.049146578
217	0x3e5c483d	0.21511932
218	0x3e9f65d0	0.31132364
219	0x3f37133f	0.7151374
220	0x3ea146d0	0.31499338
221	0xbecc2239	-0.3986986
222	0x3d922faf	0.07138001
223	0x3d5e550f	0.054280337
224	0x3d1b3fe8	0.037902743
225	0xbf87d76d	-1.0612618
226	0x3ec2f179	0.38074854
227	0x3e2dbb09	0.1696588
228	0x3d74fe9b	0.059813123
229	0xbedcbb76	-0.4311177
230	0xbd9809e9	-0.07423765
231	0x3ef56aab	0.47932944
232	0xbf095cf1	-0.5365744
233	0x3f12a07f	0.5727615
234	0x3dd828aa	0.10554631
235	0xbee27fd5	-0.44238153
236	0x3e286aa0	0.16446924
237	0xbe353636	-0.17696461
238	0x3d67b8ca	0.056572713
239	0xbf4d2f77	-0.8015055
240	0x3d62e068	0.05538979
241	0xbf0ef864	-0.55847764
242	0xbeacd4ab	-0.33756003
243	0x3e6e5e5e	0.23278186
244	0xbf33522d	-0.70047265
245	0xbe2cc09b	-0.16870348
246	0xbe1a34d4	-0.15059215
247	0x3da9323c	0.082615346
248	0x3dffc295	0.124882855
249	0x3f34d431	0.7063628
250	0xbecf69c6	-0.40510386
251	0xbea26551	-0.31717923
252	0x3e85717b	0.2606314
253	0xbc8bd486	-0.017069113
254	0xbd98f76f	-0.07469069
255	0x3e055ed3	0.13024454

lstm.bias_ih_l0 f4 [64]
0	0xbdd08fd8	-0.10183686
1	0x3e1d20c3	0.15344529
2	0x3cc1478b	0.023593685
3	0xbe1a880a	-0.15090957
4	0xbb813a46	-0.0039437143
5	0x3f022d4f	0.50850385
6	0x3e1ea380	0.15492058
7	0xbe196d6a	-0.14983144
8	0x3d63287e	0.05545854
9	0x3db8e0cd	0.09027252
10	0x3ea2fe6e	0.3183474
11	0x3e3c301a	0.18377724
12	0x3d8a284d	0.06745968
13	0x3ebd70c5	0.370001
14	0x3f18ab83	0.59636706
15	0x3a4340c2	0.00074483093
16	0x3e0b8768	0.13625872
17	0xbc79f6be	-0.015256582
18	0x3e12b77a	0.14327803
19	0x3e85d124	0.26136124
20	0x3e056824	0.13028008
21	0x3ec5f550	0.3866372
22	0x3e486e6d	0.19573374
23	0x3eb2a606	0.3489229
24	0x3c7f20f3	0.015571821
25	0x3e8e47c8	0.2778914
26	0x3e070025	0.13183649
27	0x3d0371e1	0.032091025
28	0x3ed1225c	0.40846527
29	0xbc48000d	-0.012207043
30	0x3eccca90	0.39998293
31	0x3dcee1b1	0.10101641
32	0x3ce2dfcf	0.02769461
33	0xbe4c887d	-0.19973941
34	0x3dd1829c	0.1022999
35	0x3e8f0b0f	0.27938125
36	0xbe233bc1	-0.15940763
37	0xbe3ad262	-0.18244317
38	0x3cdeb191	0.02718428
39	0x3c6709f8	0.014101498
40	0xbe4655fe	-0.19368741
41	0x3dcb3e47	0.09923988
42	0xbe427251	-0.18988921
43	0xbd6a7184	-0.057237163
44	0x3e7bc9d2	0.24588707
45	0x3a70e4a6	0.0009189345
46	0x3e29e4bf	0.16591166
47	0xbe4be50b	-0.19911592
48	0x3eb20ae3	0.3477393
49	0x3e659f53	0.22424059
50	0x3e909d9a	0.2824524
51	0xbcb25b1d	-0.021771962
52	0xbdb7b474	-0.089699656
53	0x3d8934d3	0.066995285
54	0x3e9b44d9	0.30325964
55	0x3e1f5ec3	0.15563492
56	0x3e8ccd41	0.27500346
57	0x3e4f84b7	0.2026547
58	0x3e767c83	0.24070935
59	0x3ed0b0ae	0.40759796
60	0x3eaa6ca5	0.33286014
61	0x3e42f17e	0.19037434
62	0x3e3e023d	0.18555541
63	0x3dc5647c	0.096383065

lstm.bias_hh_l0 f4 [64]
0	0x3eae9173	0.34095344
1	0xbd3c9483	-0.04604007
2	0x3e8bfb1e	0.27340025
3	0x3cd4ced8	0.025977537
4	0x3caeeb98	0.021352574
5	0x3e815407	0.2525942
6	0x3d808e11	0.06277097
7	0x3ea29dfc	0.31761158
8	0x3ca0db2d	0.019635761
9	0x3e9cb565	0.30607143
10	0x3e0f8c5e	0.1401839
11	0xbdaccbd8	-0.084373176
12	0x3eabe824	0.33575547
13	0x3db7ddd3	0.089778565
14	0x3e83daec	0.25752962
15	0xbcaec6f7	-0.021335108
16	0x3e81ccab	0.25351462
17	0xbd22de9f	-0.03976309
18	0x3ce73a29	0.028225975
19	0x3dd69aab	0.10478719
20	0xbe4818d8	-0.19540727
21	0x3d78f257	0.06077799
22	0x3d9f0dc4	0.077662975
23	0x3e87d0af	0.265264
24	0x3e9bf37b	0.30459198
25	0x3e48505c	0.19561905
26	0x3ea6d8a1	0.3258715
27	0xbd1f8757	-0.03894743
28	0x3e42945e	0.1900191
29	0x3e37ca44	0.17948252
30	0x3e1f0354	0.15528613
31	0x3eccdb5b	0.40011105
32	0x3d782fd7	0.0605925
33	0xbe2aaa98	-0.16666639
34	0x3e1df2fe	0.15424725
35	0xbcd803e1	-0.026369037
36	0xbe3bd170	-0.18341613
37	0xbd8038f7	-0.06260865
38	0x3dd45f2f	0.10369717
39	0x3e3546c1	0.17702772
40	0x3d99e409	0.075141974
41	0x3e8248bc	0.25446117
42	0xbdb44697	-0.088025264
43	0x3d54f676	0.051992856
44	0x3ea06978	0.31330466
45	0xbe86200f	-0.26196334
46	0xbe11773b	-0.14205639
47	0xbddd27ae	-0.10798584
48	0x3edc8fe6	0.43078536
49	0x3ecbca1e	0.3980264
50	0xbcce510c	-0.02518513
51	0x39100f3e	0.00013738588
52	0xbd6db924	-0.058037892
53	0x3ccc5924	0.02494485
54	0x3c9643ac	0.018342815
55	0x3e9f4dc7	0.31114027
56	0x3e016458	0.12635934
57	0xbd780736	-0.060553752
58	0x3ed87040	0.4227314
59	0x3ea092d0	0.3136201
60	0x3dcd296c	0.10017666
61	0x3d6ca7ab	0.057777088
62	0x3e3b8e2e	0.18315956
63	0x3e1e3014	0.15448028

fc.weight f4 [2, 16]
0	0xbfda89e4	-1.7073331
1	0x3d6c77f0	0.05773157
2	0xbf39fee3	-0.7265455
3	0x40012728	2.018015
4	0x401c06a2	2.4379048
5	0x3ec55640	0.38542366
6	0xbeba662d	-0.3640608
7	0x3f550cc7	0.8322262
8	0xbf4b5a44	-0.7943461
9	0x3f238015	0.6386731
10	0xbf57efd7	-0.8435034
11	0x3ede8b34	0.4346558
12	0xbe8879e0	-0.26655483
13	0x3f39b185	0.725365
14	0xbeb93da6	-0.36179847
15	0xbf47fd09	-0.78120476
16	0x3fd3d935	1.6550661
17	0x3e41f90b	0.18942659
18	0x3f682c76	0.9069284
19	0xbfe9b3a3	-1.8257946
20	0xc01cafe4	-2.4482355
21	0xbf2da476	-0.6782907
22	0xbcaf8c43	-0.021429187
23	0xbf4eb443	-0.8074381
24	0x3ee72e34	0.45152438
25	0xbf4c3491	-0.7976771
26	0x3f5a789c	0.85340285
27	0xbeee776c	-0.46575487
28	0x3e2dadfd	0.16960903
29	0xbf75a7e3	-0.959593
30	0x3f29238a	0.66069853
31	0x3f40f131	0.7536803

fc.bias f4 [2]
0	0xbee620d2	-0.44946915
1	0x3e60ff42	0.21972373
