omni/sdu/ai/examples/LSTM/model/modelv6XL.pth (torch, 127789 bytes, 18 tensors)

lstm.weight_ih_l0 f4 [128, 12]
0	0xbea5d570	-0.32389402
1	0xbcbe161f	-0.023203908
2	0x3f0f87b9	0.5606647
3	0x3d656018	0.055999845
4	0xbe29537f	-0.16535757
5	0x3f5ed4db	0.8704354
6	0xbc552584	-0.013009433
7	0x3f15d8fe	0.5853423
8	0x3ebb67a0	0.36602497
9	0x3cebf832	0.028804872
10	0xbe05991f	-0.13046692
11	0xbd045520	-0.032307744
12	0x3ec1fec1	0.37889674
13	0xbe8626dd	-0.26201525
14	0x3e58645d	0.21132036
15	0x3eb3c5f1	0.35111955
16	0x3f3126e3	0.6919996
17	0x3ec03ac0	0.37544823
18	0xbead9816	-0.33905095
19	0xbec18727	-0.37798426
20	0x3e2cfa0b	0.16892259
21	0xbea45bc5	-0.32101265
22	0xbf53f67f	-0.82798
23	0xbd251302	-0.04030133
24	0x3ece1f88	0.4025843
25	0x3c68f98f	0.014219656
26	0x3e119175	0.14215644
27	0x3e86d2ca	0.26332694
28	0x3f1f0b3b	0.6212651
29	0xbf076e3d	-0.52902585
30	0xbeed4e80	-0.46348953
31	0x3efb1620	0.49040318
32	0x3f95dcb3	1.1707977
33	0x3f01caa7	0.5069985
34	0x3f3485c2	0.705166
35	0xbe88f3bc	-0.26748455
36	0xbe743549	-0.23848452
37	0xbdbba64d	-0.09162579
38	0x3ed305f3	0.41215476
39	0x3dadd9b5	0.0848879
40	0xbe3ece34	-0.18633348
41	0xbde3b073	-0.111176394
42	0x3e17ddbc	0.14830679
43	0x3d3522b7	0.04422256
44	0x3f072463	0.52789897
45	0x3ebeca76	0.3726384
46	0x3f02c08b	0.5107505
47	0xbead4b5a	-0.3384655
48	0x3e1d85d7	0.15383087
49	0x3cb1a631	0.021685692
50	0xbd373e6f	-0.044737276
51	0x3def9485	0.1169825
52	0x3d1b7f6c	0.037963316
53	0xbdfd18dc	-0.12358257
54	0x3e5d0f02	0.21587756
55	0xbf0bfaf6	-0.5467981
56	0x3f3e1519	0.7425094
57	0xbf61ea30	-0.88247967
58	0x3e4e3e3e	0.20140931
59	0xbd9ad659	-0.07560415
60	0xbf5dd5af	-0.8665418
61	0x3f236634	0.63827825
62	0x3ed6ae90	0.41930056
63	0xbe633dbf	-0.22191523
64	0xbeb5bb33	-0.35494384
65	0xbd499588	-0.04921487
66	0x3e8be929	0.27326325
67	0xbeb6d7ee	-0.35711616
68	0x3f30ac6e	0.69013107
69	0xbe117bb7	-0.1420735
70	0xbdc1478e	-0.09437476
71	0x3dff75bf	0.1247363
72	0xbdc730b3	-0.097260855
73	0x3ea552eb	0.32289824
74	0x3ea4dc2f	0.32199237
75	0x3d2df89f	0.04247343
76	0x3e004702	0.12527087
77	0x3f3c840f	0.73639005
78	0xbfc0dab7	-1.5066746
79	0x3e8eb95c	0.27875793
80	0x3e5bfebd	0.21483894
81	0x3e750816	0.23928866
82	0x3f55c756	0.8350729
83	0xbebd0cbc	-0.36923778
84	0x3e12e422	0.14344838
85	0x3f348fec	0.7053211
86	0x3dfa3c26	0.12218504
87	0xbf13afb8	-0.5769
88	0xbdd57c73	-0.104241274
89	0xbf01cb09	-0.5070043
90	0xbdef167b	-0.1167421
91	0x3e8470ab	0.2586721
92	0x3f570953	0.839986
93	0x3f84d2a1	1.0376779
94	0xc02f28d4	-2.736867
95	0xbf5d0dfd	-0.8634947
96	0x3ebc3c4e	0.3676476
97	0x3ead9c77	0.33908436
98	0x3e29b2af	0.16572069
99	0xbece1168	-0.40247655
100	0x3e503594	0.20332938
101	0x3ed7650f	0.4206929
102	0x3f192731	0.59825426
103	0x3e392269	0.18079533
104	0x3e7f75cf	0.24947284
105	0x3cf5b1fa	0.029992092
106	0x3f875c6b	1.0575079
107	0xbf8227cf	-1.0168399
108	0xbeb11a9e	-0.3459062
109	0xbd373cbb	-0.04473565
110	0xbe8eb39e	-0.27871412
111	0x3d1951ce	0.03743153
112	0x3e0b2671	0.13588883
113	0xbecc8cd5	-0.39951196
114	0x3e352535	0.17689975
115	0xbe6fb525	-0.23408945
116	0x3a837270	0.0010028612
117	0xbeaf3b04	-0.34224713
118	0x3dcf5a55	0.10124651
119	0x3e01ea2c	0.12686986
120	0xbea6faaf	-0.3261313
121	0x3e59b4fe	0.2126045
122	0x3ee416a7	0.44548532
123	0xbeacaf09	-0.3372729
124	0x3d1ab559	0.037770603
125	0xbfce3b25	-1.61118
126	0xbe20d409	-0.15705885
127	0xbea5546e	-0.32290977
128	0x3eed9f62	0.46410662
129	0xbd4d1689	-0.05007032
130	0xbef624f5	-0.4807507
131	0x3f1d36ef	0.61411947
132	0xbf1a9384	-0.6038134
133	0x3f1e8d68	0.6193452
134	0x3eaf8307	0.34279653
135	0xbee1c1e6	-0.44093245
136	0xbecfc987	-0.4058344
137	0xbe06f9c6	-0.13181219
138	0x3da14ed0	0.078763604
139	0xbed27db4	-0.4111153
140	0x3f4cfcc2	0.8007318
141	0x3e46d924	0.1941877
142	0xbf1f8467	-0.62311405
143	0xbf37dca5	-0.7182105
144	0xbe9ff849	-0.31244114
145	0x3e715760	0.23568487
146	0x3db87c55	0.090080895
147	0x3c86b124	0.01644189
148	0x3c3a364a	0.011365483
149	0x3e157caf	0.14598344
150	0xbf1c4d61	-0.6105557
151	0x3ee4ab32	0.44661862
152	0x3f5760b2	0.8413192
153	0x3f23e1f4	0.6401665
154	0xbf065aa5	-0.5248206
155	0xbf0da7a2	-0.5533391
156	0x3e0057cd	0.12533493
157	0x3e52da47	0.20591079
158	0xbe596e11	-0.21233393
159	0xbec7ece3	-0.39047918
160	0xbf02a458	-0.5103202
161	0x3ea9f756	0.33196515
162	0xbf2f0f95	-0.6838315
163	0x3cd18684	0.025576837
164	0x3eefcaee	0.4683451
165	0xbe8afd6c	-0.2714647
166	0x3fffbf36	1.9980228
167	0xbebf0ae9	-0.3731301
168	0xbf0d8071	-0.5527411
169	0x3eb206be	0.3477077
170	0x3ec7a706	0.38994616
171	0xbea3d241	-0.31996349
172	0xbea8cca1	-0.3296862
173	0x3f1d9086	0.6154865
174	0x3eccfe38	0.40037704
175	0x3e9fb316	0.3119132
176	0x3f27ee99	0.65598446
177	0xbea19eda	-0.31566507
178	0xbe9eeae8	-0.31038594
179	0x3ea70905	0.3262407
180	0xbf4ca217	-0.7993483
181	0x3ec444a1	0.3833361
182	0xbe9aa47c	-0.30203617
183	0xbe8afe42	-0.27147108
184	0xbf81f5bd	-1.0153118
185	0xbd576de9	-0.052595053
186	0xbf2acb1b	-0.66716164
187	0x3f263fc7	0.64941067
188	0x3e4ba91b	0.19888727
189	0xbe9d1b75	-0.3068501
190	0xbe974d40	-0.29551125
191	0x3ebc23d5	0.36746088
192	0xbe823332	-0.25429684
193	0x3e921937	0.28534862
194	0xbdafc1f6	-0.08581917
195	0xbf224111	-0.63380533
196	0xbf01218e	-0.50441825
197	0x3e617948	0.22018921
198	0xbf58e75e	-0.8472804
199	0xbe2760c8	-0.16345513
200	0x3f360544	0.71101785
201	0xbe2d7b21	-0.16941501
202	0xbdf85cf5	-0.12127105
203	0xbfa03eaf	-1.251913
204	0xbe35df78	-0.17761028
205	0x3f130a46	0.5743755
206	0xbea31a2d	-0.31855908
207	0xbed2e562	-0.4119063
208	0x3eb04bb1	0.34432748
209	0x3f09a06b	0.53760403
210	0x3f71544d	0.9426926
211	0xbcbcd4e0	-0.023050725
212	0x3e5f8f3c	0.21831983
213	0x3ed84b0c	0.42244756
214	0x3eea259e	0.45731825
215	0xbdd3a385	-0.10333923
216	0x3e2474c5	0.16060169
217	0xbe7933cc	-0.24336165
218	0x3e97373a	0.29534322
219	0xbe493700	-0.19649887
220	0xbf04ef1a	-0.5192734
221	0x3f3e4423	0.7432272
222	0xbe1e2a60	-0.15445852
223	0x3d937a42	0.07201053
224	0x3f0de868	0.5543275
225	0xbed9f734	-0.42571414
226	0x3ec24a94	0.37947524
227	0xbe0e8265	-0.13916929
228	0x3e018556	0.1264852
229	0x3ca1e4d4	0.019762434
230	0x3e9c826b	0.3056825
231	0xbe0b731b	-0.13618128
232	0xbde3c2d7	-0.11121147
233	0x3e15a504	0.1461373
234	0x3ebbbb0a	0.36666137
235	0x3c97591a	0.018475104
236	0x3ee70e49	0.45128086
237	0xbf18e55b	-0.5972497
238	0xc01e706d	-2.475612
239	0xbe33d143	-0.17560296
240	0xbefc8d8a	-0.49326736
241	0x3dfba564	0.12287405
242	0x3d66891b	0.056283098
243	0x3c07147c	0.00824463
244	0xbdc3ae33	-0.0955471
245	0xbedfb21b	-0.4369057
246	0x3f223130	0.63356304
247	0x3f74f19f	0.95681185
248	0x3ef9653b	0.48710045
249	0x3ef42f2d	0.47692242
250	0x3eb61022	0.35559183
251	0x3d8f4e3d	0.06997345
252	0xbccb6021	-0.024826111
253	0x3d56ccd8	0.052441448
254	0x3e95c369	0.2925065
255	0x3c25fe91	0.010131494

lstm.weight_hh_l0 f4 [128, 32]
0	0xbe270afe	-0.16312787
1	0xbe2cb83d	-0.16867156
2	0xbd7553c7	-0.05989435
3	0xbd286895	-0.041115362
4	0x3e5226fb	0.20522682
5	0xbe263e92	-0.16234806
6	0xbe4d94b7	-0.20076261
7	0x3c442215	0.011971016
8	0x3f0123a9	0.5044504
9	0x3e68c6d9	0.22732104
10	0x3d17dd73	0.037076425
11	0x3e7b31e4	0.2453075
12	0xbeb9edda	-0.3631428
13	0xbe4012b3	-0.18757133
14	0xbecd949f	-0.4015245
15	0xbd915a8f	-0.07097351
16	0x3e2c68dd	0.16836877
17	0xbe0f98a6	-0.14023075
18	0x3e959246	0.2921316
19	0x3f17f656	0.59360254
20	0x3f1ba9e0	0.60806084
21	0xbc73e7a8	-0.014886774
22	0xbd9a1b0e	-0.075246915
23	0xbe2f1dad	-0.17101164
24	0xbe808a87	-0.25105688
25	0x3ea02bc8	0.31283402
26	0x3e673ad2	0.22581032
27	0x3ebc6278	0.36793876
28	0x3cc3a2fc	0.023881428
29	0xbccf3893	-0.025295531
30	0x3e3b1231	0.18268658
31	0xbdb20f97	-0.0869438
32	0x3d6b071e	0.057379834
33	0x3e05f40c	0.13081378
34	0x3e94e5ee	0.29081672
35	0x3ec23b06	0.37935656
36	0xbe952bd7	-0.2913501
37	0xbe08890a	-0.13333526
38	0xbe10e2de	-0.14149043
39	0xbe2f4343	-0.17115502
40	0x3e7edd9a	0.24889222
41	0x3d11febe	0.03564333
42	0xbe910e1e	-0.28331083
43	0xbf077121	-0.52906996
44	0xbea7c44e	-0.32766956
45	0x3d334e60	0.043775916
46	0xbcd22c23	-0.025655812
47	0xbd34b4e9	-0.044117842
48	0x3e044c73	0.12919788
49	0xbdf828ee	-0.12117182
50	0x3edc5e1c	0.4304055
51	0xbec4d083	-0.38440332
52	0xbe3dd390	-0.18537736
53	0x3e02519d	0.12726445
54	0x3eb92ae4	0.36165535
55	0x3d5a13b0	0.05324143
56	0x3ebac4f8	0.364784
57	0xbf2d505c	-0.67700744
58	0xbeeb3b3f	-0.4594364
59	0xbe98120e	-0.29701275
60	0x3e16ae85	0.14715011
61	0xbe90434c	-0.28176343
62	0x3e3316e3	0.174892
63	0x3e3cb247	0.18427382
64	0x3e30ae9e	0.17254111
65	0x3d6256e9	0.055258665
66	0xbdfa0642	-0.12208225
67	0x3f51a1ed	0.81887704
68	0x3eca3157	0.39490768
69	0xbed3e33e	-0.4138431
70	0xbf184cac	-0.5949199
71	0xbe05e5ad	-0.13075896
72	0xbdd20183	-0.102541946
73	0xbf2b0619	-0.6680618
74	0x3d5900e9	0.052979384
75	0xbdb8d3d9	-0.09024782
76	0xbe967ae2	-0.29390627
77	0xbf14ba50	-0.5809679
78	0x3e4dea3f	0.20108889
79	0x3e8be841	0.27325633
80	0x3f03b642	0.5144998
81	0xbd2f9d9b	-0.042874914
82	0xbe8b9513	-0.27262172
83	0x3f069a7e	0.52579486
84	0x3ee3f8a6	0.4452564
85	0xbda2b63d	-0.079449154
86	0x3eacd8ba	0.337591
87	0xbe63e09e	-0.22253653
88	0x3cbcac17	0.023031278
89	0x3f10f3bf	0.5662193
90	0x3e9bdcd6	0.30441922
91	0xbe02fcc1	-0.1279173
92	0x3d9287a4	0.07154778
93	0xbe58dc2a	-0.21177736
94	0xbe6b932f	-0.23005365
95	0xbe3b3724	-0.18282753
96	0x3d927bd9	0.07152528
97	0x3d81e28c	0.063420385
98	0x3dc91294	0.098179966
99	0x3e8849fa	0.2661894
100	0xbd515b7e	-0.051112644
101	0xbe98b376	-0.29824418
102	0x3edb0add	0.42781726
103	0xbd72a713	-0.059241366
104	0x3e753a4d	0.23948021
105	0xbddfc580	-0.10926342
106	0xbd008e5e	-0.031385772
107	0x3ef187be	0.47173876
108	0x3e9c0b9b	0.30477604
109	0xbf3ca92f	-0.73695654
110	0x3d6f4e47	0.05842426
111	0x3e36d7d4	0.1785577
112	0x3eadf497	0.3397567
113	0xbf0beda6	-0.546595
114	0x3ed41911	0.41425374
115	0xbedcc508	-0.43119073
116	0x3f398cef	0.7248067
117	0xbf7545b2	-0.9580947
118	0xbf051743	-0.5198862
119	0xbc7f2057	-0.015571675
120	0x3f7a4024	0.9775412
121	0x3dabc2e1	0.083867796
122	0x3dc7f251	0.09763015
123	0x3f101110	0.56276035
124	0xbe32abce	-0.17448351
125	0x3df5ca5e	0.12001489
126	0xbeacfa4c	-0.3378471
127	0xbdf265ff	-0.118358605
128	0x3e0efac5	0.13962848
129	0x3e31d3ed	0.17366
130	0xbf2251fe	-0.6340636
131	0xbe209872	-0.15683153
132	0x3ec2a94e	0.38019794
133	0xbe20f0ed	-0.15716906
134	0xbd9fbe4a	-0.07799967
135	0xbe34d690	-0.17659974
136	0xbc6e9214	-0.014561195
137	0x3f073481	0.5281449
138	0xbee9f2eb	-0.45693144
139	0x3e0ef91b	0.13962214
140	0xbe9ab19a	-0.30213624
141	0x3d6535f4	0.055959657
142	0x3ebc30ea	0.36756068
143	0xbe64c170	-0.22339416
144	0xbe60d046	-0.2195445
145	0x3e1ff84f	0.15622066
146	0xbe238a57	-0.15970741
147	0xbdf21db8	-0.11822075
148	0x3ec8865a	0.39165002
149	0x3e574d00	0.21025467
150	0xbd7d8f76	-0.061904393
151	0xbe9a9396	-0.30190724
152	0xbdb3802b	-0.087646805
153	0x3d9ba85e	0.07600473
154	0xbe49b617	-0.19698368
155	0x3f265d42	0.6498605
156	0x3f6613d3	0.89874
157	0x3e380904	0.17972189
158	0xbe242919	-0.16031303
159	0x3db5529c	0.08853647
160	0xbe4fd384	-0.2029553
161	0x3eccc4b1	0.39993814
162	0xbde47371	-0.11154831
163	0x3e93d769	0.28875282
164	0xbf1187d1	-0.56847864
165	0x3d05d9ba	0.032678343
166	0xbded243e	-0.11579178
167	0x3f30d050	0.6906786
168	0x3e427d1a	0.18993035
169	0xbe82bfb4	-0.25536883
170	0xbd3175ed	-0.043325353
171	0x3f1d0ddb	0.61349267
172	0xbf49886d	-0.78723794
173	0x3eb21d01	0.34787753
174	0xbe7f5561	-0.24934913
175	0xbe03fb97	-0.12888943
176	0x3dc86376	0.09784596
177	0x3d589504	0.052876487
178	0x3ead91ee	0.33900398
179	0xbeb6bb98	-0.35689998
180	0x3c713690	0.014722481
181	0x3eacfdfb	0.33787522
182	0xbde471d7	-0.11154526
183	0xbd38508c	-0.04499869
184	0x3ee60eab	0.44933066
185	0x3d26e4b3	0.04074545
186	0x3deccf4c	0.11562976
187	0x3e821a1f	0.25410554
188	0x3ecc8242	0.3994313
189	0x3e94b29b	0.29042515
190	0xbf234f3b	-0.6379277
191	0xbec6b29d	-0.38808146
192	0xbe2f557d	-0.17122455
193	0x3f45c029	0.7724634
194	0xbf02f26a	-0.51151145
195	0x3f6b320b	0.91873235
196	0xbefd238e	-0.4944119
197	0x3f119069	0.5686098
198	0xbecd7fff	-0.40136716
199	0x3dc5f2d0	0.096654534
200	0xbe586704	-0.21133047
201	0xbf5afa72	-0.855384
202	0xbf08408f	-0.5322351
203	0x3e65ff0e	0.22460577
204	0xbe0dab88	-0.13834965
205	0x3e42af6e	0.19012234
206	0xbf7a8047	-0.97851986
207	0xbec91380	-0.3927269
208	0x3e8edf56	0.27904767
209	0xbf719082	-0.94361126
210	0x3ea823bf	0.32839772
211	0x3efeb67b	0.49748597
212	0xbf4d62e2	-0.8022901
213	0xbf0d7a4e	-0.5526475
214	0xbf0edfaa	-0.55810034
215	0x3cc07166	0.023491573
216	0xbe1d3f44	-0.15356165
217	0x3edd3975	0.432079
218	0x3f60638c	0.87651896
219	0xbea520bd	-0.3225154
220	0xbefd0604	-0.49418652
221	0x3ec3b411	0.38223317
222	0x3edff366	0.43740386
223	0xbf3f4ddd	-0.74728185
224	0xbee4a3a5	-0.446561
225	0x3e831108	0.2559893
226	0xbeff9012	-0.49914604
227	0xbdebae04	-0.115078
228	0xbee6dda5	-0.45090976
229	0x3edeadec	0.43492067
230	0xbe7e20df	-0.24817227
231	0xbec48446	-0.38382167
232	0xbe14dd2d	-0.14537497
233	0xbebfe99c	-0.37482917
234	0xbdca7b1f	-0.09886765
235	0xbe44eed3	-0.19231729
236	0xbe921751	-0.28533414
237	0x3eab683a	0.33477956
238	0xbec9a83a	-0.3938616
239	0x3e459c20	0.19297838
240	0x3fa84604	1.3146367
241	0xbdae9ed7	-0.0852639
242	0x3e5465bf	0.20741938
243	0x3e105922	0.14096501
244	0xbcfbebe7	-0.030752135
245	0x3ec0ba41	0.376421
246	0xbefa0ffc	-0.4884032
247	0xbdee98b3	-0.11650219
248	0x3eb0a78f	0.34502837
249	0xbe7120c1	-0.23547651
250	0xbd870feb	-0.06594833
251	0x3cc443fe	0.023958202
252	0x3df82722	0.12116839
253	0x3d7597fb	0.059959393
254	0xbea199ac	-0.31562555
255	0xbd270b6c	-0.040782377

lstm.bias_ih_l0 f4 [128]
0	0x3e819ffd	0.25317374
1	0x3e820ecf	0.25401923
2	0x3e33d7ba	0.17562762
3	0x3e565d94	0.20934135
4	0x3e390791	0.18069293
5	0x3ef5a13e	0.4797458
6	0x3c7e5ef0	0.015525565
7	0xbcd095f3	-0.025462126
8	0x3e2138fe	0.15744397
9	0xbdf546fc	-0.1197643
10	0x3f10f64a	0.5662581
11	0x3e8dfda8	0.27732587
12	0x3e682959	0.22672023
13	0xbeab8d41	-0.33506206
14	0x3e758d9c	0.23979801
15	0xbdafb336	-0.08579104
16	0x3e48cac5	0.196086
17	0x3ca75be2	0.020429555
18	0x3db38199	0.08764953
19	0xbe1c2107	-0.15246974
20	0xbd2f97a2	-0.042869218
21	0x3ea1b0cc	0.31580198
22	0x3e8dee0c	0.27720678
23	0x3e0143ad	0.12623473
24	0x3e09f5ce	0.13472673
25	0xbe82db67	-0.25558016
26	0x3dd54e32	0.10415305
27	0xbe608362	-0.21925119
28	0xbe8dcf1e	-0.2769708
29	0x3c832436	0.016008478
30	0xbdaad6dd	-0.08341763
31	0x3ef7e2c4	0.48415196
32	0x3e00384d	0.12521477
33	0x3ea0501e	0.31311125
34	0xbbbcad17	-0.0057579386
35	0x3e4240bb	0.18970005
36	0xbde8bbf7	-0.113639764
37	0xbdf9cbf7	-0.12197106
38	0xbe6aa23b	-0.22913449
39	0xbc8d7ea4	-0.017272301
40	0xbec1b692	-0.37834603
41	0xbd3bbae2	-0.045832522
42	0xbdf0c1b6	-0.117556974
43	0xbda412d2	-0.08011402
44	0xbe4ea1ba	-0.20178881
45	0xbee240ac	-0.44189966
46	0x3d9cd1b7	0.076571874
47	0x3d11bde7	0.035581496
48	0xbe917b84	-0.28414547
49	0x3a546f30	0.00081037264
50	0xbd1da786	-0.03848984
51	0xbdf8a756	-0.12141292
52	0xbe830cb9	-0.25595644
53	0x3c8300fa	0.015991677
54	0x3e3afed0	0.18261266
55	0xbe4e3ea3	-0.20141082
56	0x3d53b539	0.0516865
57	0x3e8cd0c1	0.27503017
58	0xbe3b3493	-0.18281774
59	0xbd8f1fd7	-0.06988495
60	0xbe620bd2	-0.22074822
61	0xbe43d62e	-0.19124672
62	0xbe8f3903	-0.27973184
63	0x3e6c831b	0.23096888
64	0x3e83db4c	0.25753248
65	0x3c6eea7c	0.014582273
66	0x3e076085	0.13220413
67	0x3e68aa05	0.22721107
68	0x3d44b84b	0.048027318
69	0x3e2ff7f8	0.17184436
70	0x3e19fa42	0.15036872
71	0x3ebcceb6	0.36876458
72	0x3e1f0286	0.15528306
73	0x3d0ae417	0.03390893
74	0x3b29ed86	0.0025928929
75	0x3e7a4d23	0.24443488
76	0x3e86ba6b	0.263141
77	0xbdb687e2	-0.08912636
78	0x3df73874	0.120713145
79	0xbbec99a3	-0.0072204634
80	0xbdb7df0b	-0.08978089
81	0x3db8a3e4	0.09015635
82	0xbe69b0a1	-0.22821285
83	0x3d0c1772	0.034202047
84	0x3e321e6e	0.1739442
85	0xbebfe484	-0.3747903
86	0x3df3a3b0	0.11896455
87	0x3e4e306f	0.20135663
88	0x3e1c2d53	0.15251665
89	0xbe77eeeb	-0.24212234
90	0xbd57dfca	-0.052703656
91	0xbe672598	-0.22572935
92	0x3d357be3	0.0443076
93	0x3d438a74	0.04773946
94	0xbdc397b5	-0.0955042
95	0x3c400699	0.011720323
96	0x3df6730a	0.12033661
97	0x3cd980b1	0.026550623
98	0xbbdae390	-0.0066799596
99	0x3d15da52	0.03658516
100	0x3e8ca2eb	0.27468047
101	0x3f139c0f	0.5766
102	0x3ece00e1	0.40235046
103	0x3e5e88bc	0.21731848
104	0x3ef2468d	0.4731945
105	0xbe051da2	-0.12999585
106	0x3e6b782f	0.22995065
107	0x3df9f2f6	0.12204544
108	0x3bfbd7f1	0.0076856543
109	0xbcf653b3	-0.030069208
110	0x3e838c60	0.25693035
111	0xbd283dc7	-0.04107454
112	0x3e8662e8	0.26247334
113	0x3e29b20d	0.16571827
114	0x3de0a798	0.10969466
115	0xbe28b252	-0.16474274
116	0x3dd812be	0.1055045
117	0x3ef2affb	0.47399887
118	0xbda5beaf	-0.08093011
119	0x3ea37af1	0.31929734
120	0xbe1c1c7a	-0.15245238
121	0xbdbca3b9	-0.09210915
122	0x3e283c85	0.16429336
123	0xbdb899d0	-0.090137124
124	0xbea23afa	-0.3168562
125	0x3ddbf970	0.10740936
126	0x3e263232	0.16230085
127	0x3e807bdb	0.25094494

lstm.bias_hh_l0 f4 [128]
0	0x3e1a4414	0.15065032
1	0x3efeabda	0.49740487
2	0x3e917010	0.2840581
3	0x3e41d309	0.1892816
4	0x3ed691df	0.41908166
5	0x3ebcbd6f	0.36863276
6	0x3c7fae0d	0.015605462
7	0xbdc1a212	-0.094547406
8	0x3eb2c93e	0.3491916
9	0xbe5db314	-0.21650344
10	0x3ea8fcca	0.33005363
11	0x3e9cc558	0.3061931
12	0xbd2dc5e0	-0.042425036
13	0xbe8a16d5	-0.26970544
14	0x3e818f12	0.25304466
15	0xbea66d1b	-0.32505116
16	0x3e33b94c	0.17551154
17	0xbc96762f	-0.018366901
18	0x3e2a9937	0.1666001
19	0xbe782944	-0.24234492
20	0x3e5210cd	0.20514221
21	0x3ebc9f5a	0.36840326
22	0xbd04728e	-0.03233581
23	0xbdc621df	-0.09674429
24	0xbd1e554d	-0.038655568
25	0xbe099f29	-0.13439621
26	0x3e978e53	0.29600772
27	0xbeb475ad	-0.3524603
28	0xbed6c657	-0.41948196
29	0xbca5e0fe	-0.020248886
30	0x3e42b25a	0.19013348
31	0x3ee4f491	0.4471784
32	0x3db0b4f5	0.08628265
33	0x3d4f9388	0.050677806
34	0xbdb8cf6c	-0.090239376
35	0x3e9be201	0.30445865
36	0xbe0b3952	-0.13596085
37	0xbe072789	-0.13198675
38	0xbec2dbd1	-0.38058332
39	0xbd75a49d	-0.05997144
40	0xbdffc525	-0.12488774
41	0x3c969116	0.01837973
42	0xbe0c11d5	-0.13678677
43	0x3dbf9de5	0.09356288
44	0xbe7ef48f	-0.24897979
45	0xbe916aa8	-0.28401685
46	0x3dfe0fa4	0.12405327
47	0x3d1242c3	0.0357082
48	0xbdb24eb9	-0.087064214
49	0xbc94c3e7	-0.01815982
50	0x3cdedb24	0.027204104
51	0xbdd38b97	-0.10329359
52	0xbe5e848d	-0.21730252
53	0x3b3a4af7	0.002842603
54	0xbd970286	-0.07373528
55	0xbe80adb2	-0.2513252
56	0xbdd24364	-0.1026676
57	0x3e1c5b68	0.15269244
58	0x3ddf2a0a	0.1089669
59	0xbd954a93	-0.072896145
60	0xbe94904a	-0.29016334
61	0xbe377803	-0.17916875
62	0xbedb816d	-0.42872182
63	0x3e686a3c	0.22696775
64	0x3e4a23c2	0.19740203
65	0x3deeb9af	0.1165651
66	0x3dd0870d	0.10182009
67	0x3e5ab7fe	0.2135925
68	0xbd4ee123	-0.050507676
69	0x3e588d72	0.21147707
70	0xbd440ea6	-0.047865532
71	0x3dedc4f2	0.1160983
72	0x3e50734d	0.20356484
73	0xbd98de39	-0.074642606
74	0x3e043be9	0.12913479
75	0x3de4ab11	0.11165441
76	0x3c8b105b	0.016975572
77	0xbe4a8809	-0.19778456
78	0xbd22fbfe	-0.0397911
79	0xbded3daa	-0.11584027
80	0xbcecd327	-0.028909279
81	0xbe7cbf34	-0.24682313
82	0xbdfb0196	-0.12256162
83	0x3d8a0782	0.06739713
84	0xbcdbfbdc	-0.026853494
85	0xbea8961f	-0.32927033
86	0x3de0fe3e	0.10985993
87	0x3eb875ef	0.36027476
88	0x3e2c2a8c	0.16813105
89	0xbdb169c8	-0.08662754
90	0xbd46ec92	-0.048565455
91	0xbdd52ebc	-0.104093045
92	0x3e8b754b	0.27237925
93	0x3dc72fb9	0.09725899
94	0xbd42cf34	-0.047560886
95	0x3c6c0789	0.014406093
96	0x3e0a36b2	0.13497427
97	0xbd696003	-0.05697633
98	0xbe3d543f	-0.18489169
99	0x3d47b511	0.048756663
100	0x3dcd9f70	0.10040176
101	0x3ec70a04	0.3887483
102	0x3e21193e	0.15732285
103	0x3ef42d79	0.47690943
104	0x3eded330	0.43520498
105	0xbd5b2e3e	-0.053510897
106	0xbd1fcc03	-0.03901292
107	0x3e940cb1	0.28915933
108	0xbd3246d8	-0.043524593
109	0x3e77e22b	0.2420737
110	0x3bfb75bb	0.0076739467
111	0x3d99d6ac	0.075116485
112	0x3e5475d8	0.20748079
113	0x3ea69c26	0.32541007
114	0xbd20a08c	-0.03921561
115	0xbd977263	-0.073948644
116	0x3c419919	0.0118162865
117	0x3f05be52	0.5224353
118	0xbcf9846a	-0.030458648
119	0x3e712b09	0.23551573
120	0xbda135b8	-0.07871574
121	0xbe4b5a67	-0.19858705
122	0x3eee389c	0.46527565
123	0x3d2bc8d2	0.041939564
124	0xbe36a8d2	-0.17837837
125	0x3dc67589	0.09690387
126	0x3eaf0c3a	0.34189016
127	0x3d631f36	0.055449687

lstm.weight_ih_l1 f4 [128, 32]
0	0xbee48d7d	-0.44639197
1	0xbee39dc2	-0.44456297
2	0x3d8071f2	0.06271733
3	0x3e999768	0.29998326
4	0x3f2db978	0.6786113
5	0xbe1aabef	-0.1510465
6	0x3e4bd2e3	0.19904666
7	0xbdd6970b	-0.10478028
8	0x3f83f156	1.0308025
9	0x3eedbc25	0.46432605
10	0xbec912e6	-0.3927223
11	0xbf571d4b	-0.8402907
12	0x3f33c474	0.7022164
13	0x3e558ad0	0.20853734
14	0xbf12ba83	-0.57315844
15	0xbe2326c9	-0.15932764
16	0x3f22b4c6	0.6355709
17	0xbe7a686b	-0.24453895
18	0x3f2e8565	0.68172294
19	0x3f02625b	0.5093133
20	0xbea5647f	-0.32303235
21	0xbedc19ed	-0.4298853
22	0xbe3f6c95	-0.18693765
23	0xbf1baa7a	-0.60807
24	0xbe2fa2b2	-0.17151907
25	0x3c3b1b04	0.011420015
26	0xbe259467	-0.16169892
27	0x3d8e5b35	0.0695099
28	0xbe68e65b	-0.22744124
29	0xbe6997d7	-0.22811829
30	0xbd5c08b1	-0.053719226
31	0x3f27985f	0.65466875
32	0x3e12dff4	0.14343244
33	0xbe7966fa	-0.24355689
34	0xbe0bee1a	-0.13665047
35	0x3dc12c45	0.09432272
36	0x3e5ea574	0.21742803
37	0xbc5c7002	-0.013454439
38	0xbe190f06	-0.14947137
39	0xbe1d2d0c	-0.15349215
40	0xbeb31f2b	-0.34984717
41	0x3f172be0	0.5905132
42	0xbf1eb9f0	-0.6200247
43	0x3e0fef72	0.14056185
44	0xbf592770	-0.848258
45	0x3e6fb9f7	0.23410784
46	0xbee4c6d5	-0.44682947
47	0xbf84637a	-1.0342858
48	0xbe8d0e77	-0.27550098
49	0xbd9d2733	-0.07673492
50	0x3eb21ee9	0.34789208
51	0x3d42641d	0.047458757
52	0xbea06caa	-0.31332904
53	0x3d8388fe	0.064226136
54	0xbcbf2ea9	-0.023337679
55	0x3e280adc	0.16410393
56	0x3e2dd770	0.16976714
57	0x3d13edc7	0.036115434
58	0xbe39fbc5	-0.18162449
59	0x3ed07c62	0.40719897
60	0x3e4efddc	0.20214027
61	0xbf29d496	-0.66340005
62	0xbe4c7874	-0.19967824
63	0xbde4471d	-0.11146376
64	0x3f03a58f	0.514245
65	0xbec81d62	-0.39084917
66	0x3f02ccfb	0.51094025
67	0xbf3d527d	-0.7395399
68	0x3e617beb	0.22019927
69	0xbf38d5eb	-0.7220141
70	0x3f5d78e6	0.865126
71	0xbf55e026	-0.8354515
72	0x3e83e32d	0.2575926
73	0x3ee67d41	0.45017436
74	0x3e60f165	0.21967085
75	0xbbc118f7	-0.0058928686
76	0xbf94ebff	-1.163452
77	0xbf2fe6d5	-0.68711597
78	0x3f2fdca5	0.6869605
79	0x3e83d231	0.257463
80	0xbed91f4a	-0.42406684
81	0x3f50c057	0.8154349
82	0x3eadd1b5	0.33949056
83	0xbda542d3	-0.08069386
84	0x3f203bae	0.62591064
85	0xbd73e195	-0.059541304
86	0x3dca9a53	0.09892716
87	0xbf4a8255	-0.7910512
88	0x3ddb9f6f	0.10723769
89	0xbd2540dd	-0.04034506
90	0x3e2998af	0.1656215
91	0x3e2086db	0.15676443
92	0xbc99c4c0	-0.018770576
93	0x3f192177	0.5981669
94	0xbd8a55e2	-0.06754662
95	0xbefe8c9e	-0.49716657
96	0x3ea272f9	0.31728342
97	0x3f3d68c6	0.73987997
98	0x3f796b52	0.9742938
99	0xbe5a50f5	-0.21319945
100	0xbf1b5abc	-0.60685325
101	0xbf88d649	-1.0690395
102	0xbe4c7d43	-0.19969659
103	0x3f3eba8b	0.7450339
104	0x3f52d743	0.82359713
105	0xbeb03881	-0.3441811
106	0xbd143271	-0.036180917
107	0xbe61a210	-0.22034478
108	0xbf312118	-0.6919112
109	0xbf300c31	-0.687686
110	0x3eb58faa	0.3546117
111	0x3eaf09fe	0.3418731
112	0x3f521357	0.8206076
113	0x3d8f227d	0.06989
114	0x3d297d5a	0.04137931
115	0x3f55e5c8	0.83553743
116	0x3fa7eaea	1.3118565
117	0xbe8ca4c0	-0.27469444
118	0x3f4ce57b	0.8003766
119	0xbee9eed9	-0.4569004
120	0xbe9ec19f	-0.31007096
121	0x3e95c4d7	0.2925174
122	0x3ed244a3	0.4106799
123	0x3eee1ad5	0.46504846
124	0x3ddba662	0.107250944
125	0xbf151b57	-0.5824484
126	0xbf2eb470	-0.68244076
127	0xbf302b91	-0.6881648
128	0x3ee37e3d	0.4443225
129	0x3f14e220	0.5815754
130	0x3e835de5	0.25657573
131	0xbf080ea4	-0.5314734
132	0xbec033cf	-0.37539527
133	0xbf1be66b	-0.60898465
134	0xbe863d1f	-0.26218507
135	0xbf06ccb9	-0.5265613
136	0x3f8428a0	1.0324898
137	0x3df81cd3	0.12114873
138	0x3e3ac0f5	0.1823767
139	0x3db781b2	0.08960284
140	0xbfa569a3	-1.2922863
141	0xbe25e5a1	-0.16200878
142	0x3ee15bc3	0.4401532
143	0x3ee11f04	0.43968976
144	0x3f59e76d	0.8511875
145	0xbea1393c	-0.3148898
146	0x3f757386	0.958794
147	0x3f7e7b19	0.9940658
148	0xbd7d8255	-0.061891872
149	0xbf2f7d32	-0.6855041
150	0x3f025e38	0.50925016
151	0xbf2b64a2	-0.6695043
152	0xbe229c32	-0.15879896
153	0x3e8a5801	0.27020267
154	0x3f0e9040	0.5568886
155	0x3f79e031	0.97607714
156	0xbe9aff74	-0.3027302
157	0x3f3179a2	0.6932622
158	0x3e83ea40	0.25764656
159	0xbf101fd1	-0.5629855
160	0x3f6ba151	0.92043024
161	0x3e75666b	0.2396485
162	0x3dd5b968	0.10435754
163	0x3e9d8895	0.30768266
164	0xbe1fdfae	-0.15612671
165	0xbf2e43cf	-0.6807222
166	0xbe2851ff	-0.16437529
167	0x3f8132bb	1.0093607
168	0x3e7a17e8	0.24423182
169	0xbf86775e	-1.0505178
170	0xbf5ff845	-0.87488204
171	0x3e1728dc	0.1476168
172	0xbe86646b	-0.26248488
173	0xbf41fe73	-0.75778884
174	0xbf756073	-0.95850295
175	0xbf76a454	-0.96344495
176	0x3d1757ef	0.036949094
177	0xbe3dd22e	-0.18537208
178	0x3f5f0f56	0.87132776
179	0x3f772b96	0.9655088
180	0x3f6d6f2b	0.92747754
181	0xbefd35f3	-0.49455222
182	0xbda5fba3	-0.081046365
183	0x3ea5263a	0.32255727
184	0xbeb619cb	-0.35566553
185	0x3f84fb23	1.0389141
186	0x3f1a787a	0.6034008
187	0x3f4ad7d1	0.7923556
188	0x3e3d3d10	0.18480325
189	0xbf2a6ceb	-0.66572446
190	0xbef115b0	-0.4708686
191	0xbf84a41c	-1.0362582
192	0x3e1088cb	0.14114682
193	0xbb9b931d	-0.004747762
194	0x3e09dbca	0.13462749
195	0x3ed4c16c	0.4155382
196	0x3ebbde38	0.36692977
197	0xbf61e38c	-0.88237834
198	0x3df1ee8a	0.11813076
199	0x3eac4988	0.3364985
200	0x3ea0cf64	0.31408226
201	0x3dd6856a	0.104746655
202	0xbd90d87a	-0.0707254
203	0xbefed6d8	-0.49773288
204	0xbf394e17	-0.7238478
205	0x3e8f0fbd	0.27941695
206	0x3ec721a5	0.38892856
207	0x3da0fb1a	0.07860394
208	0x3f1e0978	0.617332
209	0x3ed9f2c2	0.42568022
210	0x3f02d491	0.511056
211	0xbdc81970	-0.09770477
212	0x3f3d6245	0.7397807
213	0xbe8486c0	-0.25884056
214	0x3f2972c6	0.66190755
215	0xbf50059c	-0.8125856
216	0x3dd1e0a4	0.10247925
217	0x3f0d61c4	0.55227304
218	0x3ebef185	0.3729364
219	0x3e70ca89	0.23514761
220	0x3e39f4f0	0.18159842
221	0xbf36c083	-0.713875
222	0xbf3b6526	-0.73201215
223	0xbe1fb856	-0.15597662
224	0x3f2ef56b	0.6834323
225	0xbf3ece9d	-0.74534017
226	0x3f0ec8ee	0.55775344
227	0x3f4d1432	0.8010894
228	0xbe83a033	-0.2570816
229	0x3e918241	0.28419688
230	0xbecb2cdc	-0.39682662
231	0xbefe7834	-0.49701083
232	0x3f374443	0.71588534
233	0xbe8ff312	-0.28115135
234	0xbf3f2f1c	-0.7468126
235	0xbe05ea8c	-0.13077754
236	0xbee59afa	-0.448448
237	0xbdf75a0b	-0.12077721
238	0xbe93b45d	-0.28848544
239	0xbe71ba43	-0.2360621
240	0xbb8a9da3	-0.0042302175
241	0xbefe0efb	-0.49620804
242	0x3dfbe526	0.12299566
243	0x3ed82201	0.42213443
244	0xbe874d33	-0.26426086
245	0xbeb5b9c7	-0.354933
246	0xbe96c555	-0.29447427
247	0xbeaeeafa	-0.34163648
248	0xbf0d68f5	-0.55238277
249	0x3dca0b5b	0.09865447
250	0xbee5288c	-0.44757497
251	0x3e82c69e	0.25542158
252	0x3da9e314	0.08295265
253	0xbc076c18	-0.008265518
254	0xbe9e0ffa	-0.30871564
255	0x3e2127bf	0.15737818

lstm.weight_hh_l1 f4 [128, 32]
0	0x3dd5669c	0.10419962
1	0x3e6d9a08	0.2320329
2	0xbe3a0945	-0.18167599
3	0xbe225268	-0.15851748
4	0x3ddf658a	0.10908039
5	0x3f318184	0.6933825
6	0xbf399c6c	-0.72504306
7	0xbce8e61e	-0.02843004
8	0xbf08cb50	-0.5343523
9	0x3e7a043b	0.24415676
10	0xbe0e8a97	-0.13920055
11	0x3ecbe464	0.39822686
12	0xbe50b1ce	-0.20380327
13	0xbec0d93c	-0.37665737
14	0xbdcb5769	-0.099287815
15	0xbea5f916	-0.324166
16	0xbdd2bfee	-0.10290514
17	0xbf1255fa	-0.5716244
18	0xbd0916f9	-0.033469174
19	0x3ea0537f	0.31313702
20	0xbe4d8bcb	-0.20072858
21	0x3ea47b8f	0.32125518
22	0xbf3cd467	-0.737616
23	0x3d275f27	0.04086223
24	0xbef63094	-0.48083937
25	0xbe891f4e	-0.26781696
26	0x3dcc4bc1	0.099753864
27	0x3e988e2b	0.29795966
28	0x3ea7334a	0.32656318
29	0x3f1ac261	0.6045285
30	0xbc9b65f8	-0.01896952
31	0xbf3c76ee	-0.7361897
32	0xbdbb803c	-0.09155318
33	0x3d2f66f8	0.042822808
34	0x3e8b86d8	0.27251315
35	0x3e6efb28	0.23337996
36	0x3ebd72b7	0.37001583
37	0x3e830e94	0.2559706
38	0x3d734559	0.059392307
39	0x3c62bd48	0.0138390735
40	0x3dbbbf5b	0.091673575
41	0x3dd58074	0.10424891
42	0xbeedcd86	-0.46445864
43	0x3dd07f79	0.101805635
44	0xbe1d7f22	-0.15380529
45	0x3dff2071	0.124573596
46	0xbb07abb0	-0.00207017
47	0x3f040ce7	0.5158219
48	0xbe43c417	-0.19117771
49	0x3dac0026	0.08398466
50	0xbecb8517	-0.39749977
51	0xbcf92406	-0.030412685
52	0x3e6bfc1b	0.2304539
53	0x3ca47ce1	0.020079078
54	0xbeb78207	-0.3584139
55	0xbddb9918	-0.1072256
56	0xbee90268	-0.45509648
57	0x3dedf881	0.11619664
58	0xbee97d21	-0.45603278
59	0xbea7261b	-0.3264626
60	0x3e0bb4c8	0.13643181
61	0x3f4cfad4	0.80070233
62	0x3cc77ae5	0.024350593
63	0xbdc41446	-0.09574179
64	0xbd4e07e6	-0.0503005
65	0xbea8a800	-0.32940674
66	0x3e3d2f56	0.18475088
67	0xbf0f5fdd	-0.5600565
68	0x3e08b5d1	0.13350607
69	0x3e0c7f78	0.137205
70	0x3d4fb5a0	0.05071032
71	0x3dd56508	0.10419661
72	0x3e0cf436	0.13765034
73	0x3dd1ac57	0.10237949
74	0xbe53c97f	-0.20682333
75	0xbe816df2	-0.25279194
76	0x3f0691b7	0.52566093
77	0xbe3d970c	-0.18514651
78	0x3e4cfe42	0.20018867
79	0x3effee3c	0.49986446
80	0xbd8c28ae	-0.068436965
81	0x3dfd6ab1	0.123738654
82	0x3ca92d2d	0.020651424
83	0x3e3222f3	0.17396145
84	0x3f09b444	0.5379069
85	0xbde0e7c1	-0.109817035
86	0x3e9c5575	0.3053395
87	0x3e1583a7	0.14601003
88	0x3d325ec7	0.043547418
89	0xbbf0f65f	-0.0073535885
90	0xbe3bcf2b	-0.18340747
91	0xbe62e439	-0.22157373
92	0xbdc96d47	-0.09835296
93	0x3e837ad0	0.25679636
94	0xbe5a285e	-0.21304461
95	0x3f4ebd61	0.8075772
96	0xbea0f3ba	-0.3143595
97	0xbf153607	-0.58285564
98	0xbf0f046d	-0.5586613
99	0x3e709c7c	0.23497194
100	0x3e6a8679	0.2290286
101	0x3e5906a1	0.21193935
102	0xbe241537	-0.16023718
103	0x3dc2dd9a	0.095149234
104	0x3eeafa03	0.4589387
105	0xbe9323a5	-0.28738132
106	0x3ead2ab9	0.33821657
107	0xbed5b597	-0.41740105
108	0x3ed4231e	0.41433042
109	0xbe7043a3	-0.23463301
110	0xbf12bb1d	-0.5731676
111	0xbed22d15	-0.4105002
112	0xbf2cf1f0	-0.6755667
113	0xbe9d3c01	-0.30709842
114	0x3ecd6782	0.40118033
115	0x3f311118	0.6916671
116	0xbeffb73e	-0.4994449
117	0x3e51da11	0.20493342
118	0x3e3e69a8	0.18594992
119	0xbb4d714a	-0.0031348043
120	0x3c1b493b	0.009477909
121	0xbdb6aef2	-0.08920087
122	0x3dc457fa	0.09587093
123	0x3e9d4665	0.3071777
124	0x3ed7b3df	0.42129418
125	0x3e3029cb	0.17203443
126	0x3f255118	0.64576864
127	0xbf5b93c8	-0.8577237
128	0x3e5d73b2	0.21626166
129	0x3d368c52	0.044567414
130	0x3df59882	0.11991979
131	0xbedda40f	-0.4328923
132	0xbdf0ab29	-0.11751396
133	0x3f381d0b	0.71919316
134	0x3e759075	0.23980887
135	0x3e8eff8a	0.27929336
136	0xbf7f76d4	-0.9979069
137	0x3f0c91ec	0.5491016
138	0x3e867a91	0.26265386
139	0xbc34bc9f	-0.011031299
140	0x3f52c84c	0.8233688
141	0xbe7ce1f2	-0.24695566
142	0x3e1b405b	0.15161268
143	0xbe7a18a4	-0.24423462
144	0xbf3e10e4	-0.74244523
145	0x3ea7c72c	0.32769144
146	0xbee8e171	-0.45484498
147	0x3e95465d	0.29155245
148	0xbe0f3af1	-0.13987328
149	0x3eeeb621	0.46623328
150	0x3dcc54c7	0.099771075
151	0x3f0b93b3	0.54522246
152	0xbf3b1b89	-0.7308889
153	0xbde18a84	-0.11012748
154	0xbe9b27e7	-0.3030388
155	0x3e647e0f	0.22313713
156	0xbe08c1d4	-0.1335519
157	0xbf07224e	-0.5278672
158	0x3f175187	0.59108776
159	0xbf189d92	-0.59615433
160	0xbeb98b82	-0.3623925
161	0xbf23ab22	-0.63933
162	0x3e831e28	0.25608945
163	0x3cacf7ad	0.021114195
164	0x3f5797a7	0.8421578
165	0x3eaeee5a	0.34166223
166	0x3e8f8174	0.28028452
167	0x3e6671c3	0.22504334
168	0x3f00ec23	0.50360316
169	0xbdd55c68	-0.10418016
170	0x3e6495e9	0.22322811
171	0x3d1ec5b2	0.038762756
172	0x3e00d6a3	0.12581877
173	0x3d8fc7b3	0.070205115
174	0xbe33c960	-0.17557287
175	0xbf105733	-0.56383055
176	0x3f37b347	0.7175793
177	0xbf7f6dcf	-0.9977693
178	0x3f025d2c	0.5092342
179	0x3ea06fff	0.31335446
180	0x3d0f7156	0.035020195
181	0x3e5f0b6f	0.21781705
182	0xbee64e82	-0.44981772
183	0x3e0473f0	0.12934852
184	0x3e259569	0.16170277
185	0x3e913519	0.28360823
186	0x3def271c	0.116773814
187	0xbefda12a	-0.4953702
188	0x3e84d69c	0.25944984
189	0xbe05dad6	-0.1307176
190	0x3ecc375c	0.39885986
191	0xbee66a91	-0.4500318
192	0xbdcea6b4	-0.1009039
193	0xbd96f9f7	-0.07371896
194	0xbe58a1b4	-0.21155435
195	0xbe3cf1bb	-0.18451588
196	0xbda0066d	-0.078137256
197	0xbe991b1e	-0.299035
198	0xbeead38e	-0.45864528
199	0xbf01fc8a	-0.5077597
200	0x3e0f6eb0	0.14007068
201	0xbef5e5e5	-0.48026958
202	0xbe153256	-0.14569983
203	0xbe9d5d41	-0.3073521
204	0x3f07608b	0.5288169
205	0x3ebd3498	0.36954188
206	0xbd82ac92	-0.063805714
207	0xbdd821ef	-0.10553347
208	0x3e0b34ce	0.13594362
209	0xbd0810a0	-0.03321898
210	0xbdb50978	-0.08839697
211	0x3dc060ac	0.09393439
212	0x3e8a9d78	0.27073264
213	0xbe36cdd2	-0.17851952
214	0xbdb7856f	-0.08960997
215	0x3e057bde	0.13035533
216	0xbd238f40	-0.039931536
217	0xbd463399	-0.04838905
218	0x3ee1898a	0.44050246
219	0xbef4e9eb	-0.47834715
220	0x3e960092	0.2929731
221	0x3e37a891	0.17935397
222	0x3b859486	0.0040765433
223	0x3e370ffb	0.1787719
224	0x3e5e7307	0.21723567
225	0xbef06fa0	-0.46960163
226	0x3e018ba5	0.12650926
227	0xbec43289	-0.38319805
228	0xbe7c7e69	-0.24657597
229	0xbeacacc7	-0.3372557
230	0xbdf51f1a	-0.11968823
231	0x3d893db8	0.06701225
232	0x3db1080f	0.08644115
233	0x3e135281	0.14386941
234	0x3d8cea59	0.06880636
235	0xbe32d730	-0.174649
236	0xbe114e55	-0.14190038
237	0xbd89b3c2	-0.06723739
238	0x3f147284	0.57987237
239	0x3a4c24a6	0.00077874435
240	0xbd9a05b6	-0.075206205
241	0xbe5a89b4	-0.21341592
242	0x3ad7aa11	0.0016453882
243	0x3ecbe07d	0.39819708
244	0x3d843098	0.06454581
245	0x3e15dde4	0.14635426
246	0xbe3dbd8f	-0.18529342
247	0x3e4e1eb5	0.20128901
248	0x3e5cedfb	0.21575157
249	0xbea1f631	-0.31633142
250	0xbe87549e	-0.26431745
251	0xbea3b600	-0.31974792
252	0x3e70ab83	0.23502927
253	0x3f0e162c	0.5550258
254	0xbe38dc57	-0.18052803
255	0x3db8b5d4	0.09019056

lstm.bias_ih_l1 f4 [128]
0	0xbeee2dab	-0.46519217
1	0x3e943f3e	0.289545
2	0x3eff0cb0	0.49814367
3	0x3e4af83b	0.19821255
4	0x3e5ba736	0.21450505
5	0x3e8cfd41	0.27536967
6	0x3e938629	0.28813294
7	0xbe5f8ba8	-0.21830618
8	0x3e1f5267	0.15558778
9	0x3cd05dee	0.025435414
10	0x3d941921	0.072313555
11	0xbef6a1d4	-0.4817034
12	0x3e3353b3	0.17512397
13	0x3ec4654b	0.3835853
14	0x3ee2018e	0.4414181
15	0x3c60fbc8	0.013731904
16	0x3e89724c	0.26845014
17	0xbccff3f0	-0.025384873
18	0x3d71c7cc	0.05902843
19	0x3e37b983	0.17941861
20	0x3ebf17a0	0.37322712
21	0x3d6cafab	0.057784718
22	0x3e4cc18f	0.19995712
23	0xbe4854f5	-0.19563659
24	0x3c3fdb4c	0.011709999
25	0xbe69d9e9	-0.22837032
26	0xbc66abc0	-0.014079034
27	0x3f244b9d	0.64177877
28	0xbca76ba4	-0.02043707
29	0xbd9f708a	-0.07785137
30	0x3ca5e72c	0.020251833
31	0xbe940913	-0.28913173
32	0xbedcf029	-0.43151978
33	0xbe5efc3a	-0.21775904
34	0x3e5c1a20	0.21494341
35	0xbeaabde5	-0.33348003
36	0x3e740a27	0.23831998
37	0x3e3a7ebc	0.18212408
38	0xbecccd47	-0.40000364
39	0x3e46b772	0.19405916
40	0xbe9601dc	-0.29298294
41	0xbd5e21c9	-0.05423144
42	0x3eafd368	0.34340978
43	0xbe972c44	-0.2952596
44	0xbc158889	-0.009126791
45	0xbe8db5f4	-0.27677882
46	0x3e53c711	0.20681407
47	0x3e0870ad	0.13324232
48	0xbca640eb	-0.020294627
49	0xbdc5dae3	-0.0966089
50	0x3deb1b77	0.11479848
51	0x3eb21dde	0.34788412
52	0xbc8f22c1	-0.017472627
53	0xbf00a56f	-0.5025243
54	0x3ef5810c	0.47950017
55	0xbdd77b35	-0.10521547
56	0xbea311a7	-0.31849405
57	0x3e26d16e	0.16290829
58	0xbe7895f0	-0.24275947
59	0xbef75737	-0.48308727
60	0xbdc138d6	-0.09434669
61	0x3df6817d	0.12036417
62	0x3e6adca1	0.22935726
63	0xbf12b7df	-0.57311815
64	0x3e9973c8	0.29971147
65	0xbd213aba	-0.039362647
66	0xbd83e0f3	-0.0643939
67	0xbe0d3905	-0.13791282
68	0xbd634956	-0.05548986
69	0xbd391cdc	-0.045193538
70	0xbe9eb06f	-0.30993983
71	0x3e812ffa	0.25231916
72	0x3cfa5fee	0.030563321
73	0x3ea38523	0.31937513
74	0xbe5a51dc	-0.2132029
75	0xbe51ddcf	-0.2049477
76	0x3e1351e6	0.1438671
77	0x3cbdd5bd	0.023173207
78	0x3e051c87	0.12999164
79	0x3ec1facb	0.37886652
80	0xbdd2830d	-0.10278902
81	0x3e4ddcd3	0.20103769
82	0xbd37c12d	-0.04486196
83	0xbd50ec3c	-0.05100654
84	0x3e652cc6	0.22380361
85	0xbe5b57e3	-0.21420245
86	0xbe2aa5a8	-0.16664755
87	0xbd8f3f0f	-0.06994449
88	0xbdc6715a	-0.09689589
89	0xbd1c7d95	-0.0382057
90	0x3e357a4d	0.17722435
91	0xbda1ea56	-0.07906024
92	0x3e2cf1f2	0.1688917
93	0x3d7d69c3	0.06186844
94	0x3e10a3ea	0.14125028
95	0x3e247b7b	0.16062729
96	0xbf310945	-0.6915477
97	0x3e0fdef9	0.14049901
98	0x3ecd1346	0.40053767
99	0x3f215b40	0.6302986
100	0x3e72da02	0.23715976
101	0x3d9b820d	0.075931646
102	0x3f1ad4a5	0.6048072
103	0xbf29d893	-0.6634609
104	0x3dcff0b5	0.10153333
105	0xbeac25e9	-0.33622673
106	0x3f08a737	0.5338015
107	0xbe527a45	-0.20554455
108	0x3f125ce9	0.5717302
109	0x3e78fc1e	0.24314925
110	0x3f273779	0.6531902
111	0xbe0d3694	-0.13790351
112	0x3e03fdff	0.1288986
113	0x3dc2fd64	0.09520987
114	0xbe092a08	-0.1339494
115	0xbd7c4f6a	-0.061599173
116	0x3f33b15d	0.7019251
117	0xbd2a1374	-0.04152246
118	0xbe71656c	-0.23573846
119	0xbe7a2fbe	-0.24432275
120	0xbecdc8b7	-0.40192196
121	0x3e06ae56	0.13152441
122	0x3ceb096d	0.028691018
123	0x3ef7a2be	0.4836635
124	0xbeb96ce8	-0.362159
125	0x3ebf71d7	0.3739154
126	0x3d88b4a5	0.0667508
127	0xbf33f90e	-0.703019

lstm.bias_hh_l1 f4 [128]
0	0xbee5b47b	-0.44864258
1	0x3e0a9476	0.13533196
2	0x3ef98aad	0.48738614
3	0x3d24d12e	0.04023855
4	0x3eae5505	0.3404924
5	0x3e89b855	0.26898447
6	0x3e6b41ff	0.22974394
7	0xbec7d8c5	-0.3903257
8	0x3e7577ef	0.23971532
9	0xbe7319e7	-0.2374035
10	0x3e75c0dc	0.23999351
11	0xbeee8771	-0.4658771
12	0x3e1c3b70	0.15257049
13	0x3f0356ec	0.5130451
14	0x3e6ce3e1	0.23133804
15	0x3c66ed51	0.014094667
16	0x3d33c7fa	0.043891884
17	0x3e4d909a	0.20074692
18	0xbcfae12e	-0.030624952
19	0x3ddd578f	0.10807716
20	0x3e40a753	0.18813829
21	0xba09d81d	-0.00052583386
22	0xbd37c476	-0.044865094
23	0xbe5bad08	-0.21452725
24	0x3cafbf56	0.02145354
25	0x3dd7d1de	0.10538076
26	0xbd82e5ae	-0.06391464
27	0x3f1ad6e4	0.6048415
28	0x3d842839	0.06452984
29	0x3ca7fd73	0.020506596
30	0xbe7a36ec	-0.24435014
31	0xbeb0ea48	-0.34553742
32	0xbef53e3e	-0.4789905
33	0xbe53ac75	-0.20671256
34	0x3e83c84f	0.2573876
35	0xbeb13fcb	-0.34618983
36	0x3e50a3cb	0.20374982
37	0x3df702cd	0.12061081
38	0xbea0df1c	-0.3142022
39	0x3e14edd2	0.14543846
40	0xbebd50ad	-0.36975613
41	0xbc3b7b33	-0.011442947
42	0x3e82cafb	0.25545487
43	0x3c756cd5	0.014979561
44	0xbe633119	-0.22186698
45	0xbdfd32c8	-0.123632014
46	0x3e95bbf9	0.29244974
47	0x3eab6a76	0.3347966
48	0x3d6d5277	0.057939973
49	0xbe8b42b1	-0.2719932
50	0x3e4a42a6	0.19751987
51	0x3dc1b63b	0.09458586
52	0xbdaa714f	-0.08322393
53	0xbeb77ea0	-0.35838795
54	0x3ea3d8ab	0.32001242
55	0xbe9543ff	-0.2915344
56	0xbe62809a	-0.2211937
57	0x3dcafa8b	0.099110685
58	0x3cfb38db	0.03066676
59	0xbf0b80b5	-0.54493266
60	0xbbde6249	-0.006786619
61	0x3e12da36	0.14341053
62	0x3e4d0ff5	0.20025618
63	0xbf1af2f0	-0.60526943
64	0x3d8cfe67	0.06884461
65	0x3e08f4b6	0.133746
66	0xbc84c61e	-0.01620775
67	0xbe066938	-0.13126075
68	0x3d2ecb58	0.042674392
69	0xbbd42ecc	-0.006475305
70	0xbc5beb1e	-0.0134227555
71	0x3dc676f3	0.096906565
72	0x3c668157	0.014068923
73	0x3e7f7a2c	0.24948949
74	0xbea6ea2e	-0.3260054
75	0xbec26bfc	-0.3797301
76	0x3d2b0fb2	0.041763015
77	0x3db5ed9e	0.088832125
78	0xbd90f852	-0.07078613
79	0x3e687f3e	0.22704789
80	0xbe6ca13f	-0.23108386
81	0xbd2a7be3	-0.041622054
82	0xbdfa5736	-0.122236654
83	0xbe2d57e4	-0.16928059
84	0x3eb6fc8a	0.35739547
85	0xbd8d40f9	-0.06897158
86	0xbb0d3a0f	-0.0021549498
87	0xbd15575a	-0.036460258
88	0xbc1e7857	-0.009672246
89	0xbdc09239	-0.0940289
90	0x3eb551fe	0.35414118
91	0x3d222244	0.03958346
92	0x3e782951	0.24234511
93	0x3e60e9b0	0.21964145
94	0x3e457bfe	0.1928558
95	0x3e1ea9b8	0.1549443
96	0xbf344bd5	-0.7042821
97	0x3e1332c9	0.14374842
98	0x3e96c667	0.29448244
99	0x3f14afe8	0.5808091
100	0x3eaece17	0.3414161
101	0x3e743f91	0.23852374
102	0x3f0feb66	0.56218565
103	0xbf1a032b	-0.60161084
104	0x3ed8e8f4	0.4236523
105	0xbeb9283a	-0.36163503
106	0x3e8e4590	0.27787447
107	0xbea09971	-0.31367067
108	0x3f0f7953	0.560445
109	0x3ee3c4cc	0.44486082
110	0x3ee00b78	0.4375875
111	0xbe2f6244	-0.17127329
112	0x3e746aee	0.23868915
113	0x3e44fb95	0.19236596
114	0xbe026faf	-0.12737916
115	0xbde02fa9	-0.109465905
116	0x3f2eec68	0.6832948
117	0xbde8caaf	-0.11366784
118	0x3cad59f5	0.021161059
119	0xbe920c76	-0.28525132
120	0xbec2545e	-0.37954992
121	0x3e62e885	0.22159012
122	0xbc9d7259	-0.019219564
123	0x3e89b5a9	0.26896408
124	0xbe8442b8	-0.25832152
125	0x3e9840b8	0.29736876
126	0xbdf84d2f	-0.121240966
127	0xbf4ceb55	-0.8004659

lstm.weight_ih_l2 f4 [128, 32]
0	0x3eaa9fb1	0.3332496
1	0x3ecb47fd	0.3970336
2	0xbed9ba70	-0.42525053
3	0x3e63709a	0.22210923
4	0xbe070fba	-0.13189593
5	0xbed7462e	-0.4204573
6	0xbec9e170	-0.39429808
7	0xbf2a7736	-0.6658815
8	0x3f127078	0.57202864
9	0x3e914f54	0.28380835
10	0x3e24759d	0.16060491
11	0x3da1c5a9	0.07899029
12	0xbf69cafc	-0.91325355
13	0x3f0ba0d6	0.5454229
14	0x3d9da53a	0.0769753
15	0x3ea81088	0.32825112
16	0x3f31bb01	0.6942597
17	0x3f060b73	0.5236122
18	0x3f0d31be	0.55154026
19	0xbec82c9a	-0.39096528
20	0xbf030e25	-0.5119346
21	0xbf8ba804	-1.0910649
22	0x3c6d661c	0.014489677
23	0xbf1f73e0	-0.62286186
24	0x3ecc92a3	0.39955625
25	0xbe239327	-0.15974103
26	0x3eb78282	0.35841757
27	0xbe1c3b7f	-0.15257071
28	0x3eeafbf9	0.45895365
29	0xbe9df10c	-0.30847967
30	0xbf61bd79	-0.8817974
31	0x3f84da94	1.0379205
32	0x3e99b599	0.3002136
33	0xbf50240f	-0.8130502
34	0xbf57d247	-0.8430523
35	0xbf2c91ac	-0.6740978
36	0xbf439c29	-0.76410156
37	0xbdd0b270	-0.10190284
38	0x3ecffb8c	0.40621603
39	0x3c87f050	0.016594082
40	0xbf0187c0	-0.50597763
41	0xbdac87f6	-0.0842437
42	0x3e88eb08	0.26741815
43	0xbe9bd36a	-0.30434734
44	0x3eb6725f	0.35634133
45	0xbeb3f6c8	-0.35149217
46	0x3f0b72e7	0.544722
47	0xbe62ee31	-0.22161175
48	0xbece92ca	-0.40346366
49	0xbed47b89	-0.415005
50	0x3d878127	0.06616431
51	0x3d366b27	0.044535782
52	0x3d0fd85d	0.03511845
53	0x3f2414e9	0.64094406
54	0x3f03c1ba	0.5146748
55	0x3f54a68c	0.8306663
56	0xbefee99a	-0.497876
57	0x3ea9bcf5	0.33151975
58	0x3f0142e0	0.5049267
59	0x3d9e7853	0.07737794
60	0x3e56ef97	0.20989834
61	0xbe2b7cae	-0.1674678
62	0x3f30ad10	0.6901407
63	0xbd0c677c	-0.034278378
64	0xbed2085b	-0.41022
65	0xbf2d8db8	-0.6779437
66	0x3ec1855f	0.37797067
67	0xbdecb202	-0.1155739
68	0x3e7510cc	0.23932189
69	0xbe8c1587	-0.27360174
70	0x3e13ba81	0.14426614
71	0xbcbac779	-0.022800194
72	0xbd428952	-0.04749424
73	0xbd8b61a0	-0.0680573
74	0xbee76073	-0.45190772
75	0x3dacb635	0.08433191
76	0xbd615f1a	-0.055022337
77	0xbf1b633c	-0.60698295
78	0x3db7d763	0.08976629
79	0xbf1e6744	-0.6187632
80	0xbefe7d6e	-0.4970507
81	0xbe7fcefb	-0.249813
82	0x3f0305b3	0.5118057
83	0x3e0f28db	0.13980429
84	0x3ea9edf9	0.3318937
85	0x3f02489c	0.50892043
86	0x3d97718f	0.073947065
87	0x3f56f036	0.8396028
88	0xbea90987	-0.3301508
89	0x3d6e34d2	0.058155842
90	0xbeeeea1d	-0.4666299
91	0xbf121f46	-0.5707897
92	0x3da884c2	0.082284465
93	0x3e10e0c9	0.14148249
94	0x3dfd8e23	0.12380626
95	0xbf44f77b	-0.76940125
96	0x3e019788	0.12655461
97	0xbdf5052c	-0.11963877
98	0xbd991034	-0.074737936
99	0xbe927718	-0.28606486
100	0x3dfbb840	0.12291002
101	0x3e2ef3c0	0.17085171
102	0x3d1ea38f	0.0387302
103	0xbe135aad	-0.14390059
104	0x3e5fa569	0.21840443
105	0xbeb455d4	-0.35221732
106	0x3ee94741	0.45562175
107	0xbe93aba0	-0.28841877
108	0xbef7661c	-0.4832009
109	0x3da42e8a	0.08016689
110	0x3e68b85f	0.22726582
111	0xbe18143c	-0.14851469
112	0x3f6bc784	0.9210131
113	0xbe6ebc01	-0.23313905
114	0xbed52451	-0.4162927
115	0x3cc3eee0	0.023917615
116	0xbf11f0b0	-0.57007885
117	0x3f2ac66e	0.6670903
118	0x3e414dc1	0.18877317
119	0x3e813c95	0.25241533
120	0xbda6b99d	-0.08140872
121	0x3da548ef	0.080705516
122	0x3e7d46ca	0.24734035
123	0x3f4374df	0.76350206
124	0x3e6fab2b	0.23405139
125	0x3ec99c69	0.39377144
126	0xbf22a52c	-0.6353328
127	0x3f15ace0	0.5846691
128	0x3f2e9712	0.68199265
129	0xbe7519c2	-0.23935607
130	0x3e431770	0.1905191
131	0x3ee4f93e	0.44721407
132	0x3e8d5960	0.2760725
133	0x3e13ce34	0.14434129
134	0x3f12028c	0.57035136
135	0x3d9936fe	0.07481192
136	0x3ed07b80	0.40719223
137	0xbd582e67	-0.052778628
138	0x3e2f0da7	0.17095052
139	0x3f2f1e2a	0.684054
140	0xbc7d902d	-0.015476269
141	0x3d91b3d3	0.07114377
142	0xbb2d2b17	-0.0026423389
143	0x3ddac2ad	0.10681663
144	0x3d985771	0.07438553
145	0x3ea76fd0	0.32702494
146	0xbd865288	-0.0655871
147	0x3dad0462	0.084481016
148	0x3d2f6b40	0.04282689
149	0xbf595b93	-0.84905356
150	0x3eaf5770	0.34246397
151	0xbdfcc2a4	-0.12341812
152	0xbc0a3ff6	-0.008438101
153	0x3ec3f5eb	0.38273558
154	0xbd190a2e	-0.037363224
155	0xbeb1859f	-0.34672257
156	0xbe6e8ba0	-0.2329545
157	0xbe558988	-0.20853245
158	0xbecd7699	-0.40129545
159	0xbdcfa04e	-0.101379976
160	0x3dcb3026	0.09921293
161	0xbe0f8eb6	-0.14019284
162	0xbe789c87	-0.2427846
163	0xbe045b49	-0.12925448
164	0xbf477972	-0.77919686
165	0xbe864705	-0.2622606
166	0xbee651a4	-0.44984162
167	0x3d972beb	0.073814236
168	0xbef35bb7	-0.4753091
169	0xbe5fcd8c	-0.21855754
170	0x3ea2c516	0.3179099
171	0x3e70c876	0.2351397
172	0x3ea3c6d7	0.3198764
173	0x3f1af44b	0.6052901
174	0xbdc4a659	-0.09602041
175	0x3deaef47	0.1147142
176	0x3c78ef58	0.015193783
177	0x3e23f4d4	0.16011363
178	0x3e443de9	0.19164242
179	0xbec39de1	-0.3820639
180	0x3c900e72	0.017585013
181	0xbf1b7c38	-0.6073642
182	0xbe1e0ed4	-0.15435344
183	0x3f86334e	1.0484407
184	0x3eaf7221	0.3426676
185	0xbf061b7d	-0.52385694
186	0xbd6e5f9f	-0.05819666
187	0xb9f212c5	-0.0004617182
188	0x3e999198	0.29993892
189	0x3dfe21af	0.124087684
190	0xbdb4bd73	-0.08825197
191	0xbd33eacc	-0.04392509
192	0x3eef54a1	0.46744254
193	0xbceb1a1e	-0.028698977
194	0xbdd1b6e0	-0.10239959
195	0x3e43292d	0.19058676
196	0x3e59648a	0.21229759
197	0xbea1ee9c	-0.31627357
198	0x3ddfbcde	0.109246954
199	0x3d81acd0	0.063317895
200	0xbe841922	-0.25800425
201	0xbea31896	-0.31854695
202	0x3f40e6b6	0.75352037
203	0xbf08007e	-0.5312575
204	0x3de4b2c2	0.11166908
205	0xbe9c4d2d	-0.3052763
206	0xbeed9433	-0.4640213
207	0xbf4804aa	-0.78132117
208	0x3ed8779b	0.42278752
209	0x3daf79ee	0.08568178
210	0x3bba339e	0.005682423
211	0x3edb57e8	0.42840505
212	0xbf44be3f	-0.7685279
213	0x3caf50d2	0.021400843
214	0x3df0760b	0.11741265
215	0x3d139cd9	0.036038253
216	0x3ca73c9e	0.020414647
217	0x3e937243	0.28798112
218	0x3e83b13e	0.25721163
219	0x3f4ed3c2	0.80791867
220	0x3f0379dc	0.5135782
221	0x3e108d86	0.14116487
222	0x3e957b36	0.29195565
223	0x3e1566a8	0.14589942
224	0x3e6a1e20	0.22863054
225	0x3e0e437e	0.13892934
226	0x3e592f09	0.21209349
227	0xbe926cec	-0.28598726
228	0x3e9d7b98	0.30758357
229	0x3eeb7b2a	0.45992404
230	0xbe3bc7b9	-0.18337907
231	0x3f2ae094	0.6674893
232	0x3ec44927	0.3833706
233	0xbe197ce4	-0.14989048
234	0x3e013f8b	0.12621896
235	0xbe61966e	-0.2203004
236	0x3ec66440	0.3874836
237	0xbf4e2f36	-0.8054079
238	0x3f096e46	0.5368389
239	0x3d232fcd	0.03984051
240	0x3e0fb611	0.14034297
241	0x3eda5db3	0.42649612
242	0x3dafd3f7	0.08585351
243	0x3f03ccad	0.51484185
244	0xbe803993	-0.25043926
245	0x3edc1f50	0.4299264
246	0xbea7837b	-0.327175
247	0x3f050b41	0.519703
248	0xbf4ac52e	-0.7920712
249	0xbd0a6566	-0.033788107
250	0x3dfb0b4a	0.122580126
251	0x3e784638	0.24245536
252	0x3edfc61a	0.43705827
253	0x3e4f8229	0.20264496
254	0xbdb23e91	-0.0870334
255	0xbdf04d14	-0.117334515
